{"format": "graph-model", "generatedBy": "1.15.2", "convertedBy": "TensorFlow.js Converter v1.4.0", "userDefinedMetadata": {"signature": {"outputs": {"Postprocessor/ExpandDims_1": {"name": "Postprocessor/ExpandDims_1"}, "Postprocessor/Slice": {"name": "Postprocessor/Slice"}}}}, "modelTopology": {"node": [{"name": "image_tensor", "op": "Placeholder", "attr": {"dtype": {"type": "DT_UINT8"}, "shape": {"shape": {"dim": [{"size": "-1"}, {"size": "-1"}, {"size": "-1"}, {"size": "3"}]}}}}, {"name": "Preprocessor/mul/x", "op": "Const", "attr": {"dtype": {"type": "DT_FLOAT"}, "value": {"tensor": {"dtype": "DT_FLOAT", "tensorShape": {}}}}}, {"name": "Preprocessor/sub/y", "op": "Const", "attr": {"dtype": {"type": "DT_FLOAT"}, "value": {"tensor": {"dtype": "DT_FLOAT", "tensorShape": {}}}}}, {"name": "Preprocessor/map/strided_slice/stack", "op": "Const", "attr": {"value": {"tensor": {"dtype": "DT_INT32", "tensorShape": {"dim": [{"size": "1"}]}}}, "dtype": {"type": "DT_INT32"}}}, {"name": "Preprocessor/map/strided_slice/stack_1", "op": "Const", "attr": {"dtype": {"type": "DT_INT32"}, "value": {"tensor": {"dtype": "DT_INT32", "tensorShape": {"dim": [{"size": "1"}]}}}}}, {"name": "Preprocessor/map/TensorArrayUnstack/range/start", "op": "Const", "attr": {"value": {"tensor": {"dtype": "DT_INT32", "tensorShape": {}}}, "dtype": {"type": "DT_INT32"}}}, {"name": "Preprocessor/map/TensorArrayUnstack/range/delta", "op": "Const", "attr": {"value": {"tensor": {"dtype": "DT_INT32", "tensorShape": {}}}, "dtype": {"type": "DT_INT32"}}}, {"name": "BoxPredictor_4/ClassPredictor/act_quant/max", "op": "Const", "attr": {"value": {"tensor": {"dtype": "DT_FLOAT", "tensorShape": {}}}, "dtype": {"type": "DT_FLOAT"}}}, {"name": "BoxPredictor_3/BoxEncodingPredictor/act_quant/min", "op": "Const", "attr": {"value": {"tensor": {"dtype": "DT_FLOAT", "tensorShape": {}}}, "dtype": {"type": "DT_FLOAT"}}}, {"name": "BoxPredictor_5/BoxEncodingPredictor/act_quant/min", "op": "Const", "attr": {"dtype": {"type": "DT_FLOAT"}, "value": {"tensor": {"dtype": "DT_FLOAT", "tensorShape": {}}}}}, {"name": "BoxPredictor_5/BoxEncodingPredictor/act_quant/max", "op": "Const", "attr": {"dtype": {"type": "DT_FLOAT"}, "value": {"tensor": {"dtype": "DT_FLOAT", "tensorShape": {}}}}}, {"name": "FeatureExtractor/MobilenetV1/MobilenetV1/Conv2d_11_pointwise/weights_quant/FakeQuantWithMinMaxVars", "op": "Const", "attr": {"value": {"tensor": {"dtype": "DT_FLOAT", "tensorShape": {"dim": [{"size": "1"}, {"size": "1"}, {"size": "512"}, {"size": "512"}]}}}, "dtype": {"type": "DT_FLOAT"}}}, {"name": "FeatureExtractor/MobilenetV1/MobilenetV1/Conv2d_11_pointwise/act_quant/min", "op": "Const", "attr": {"value": {"tensor": {"dtype": "DT_FLOAT", "tensorShape": {}}}, "dtype": {"type": "DT_FLOAT"}}}, {"name": "BoxPredictor_3/BoxEncodingPredictor/act_quant/max", "op": "Const", "attr": {"value": {"tensor": {"dtype": "DT_FLOAT", "tensorShape": {}}}, "dtype": {"type": "DT_FLOAT"}}}, {"name": "FeatureExtractor/MobilenetV1/MobilenetV1/Conv2d_11_pointwise/act_quant/max", "op": "Const", "attr": {"value": {"tensor": {"dtype": "DT_FLOAT", "tensorShape": {}}}, "dtype": {"type": "DT_FLOAT"}}}, {"name": "FeatureExtractor/MobilenetV1/MobilenetV1/Conv2d_12_depthwise/weights_quant/FakeQuantWithMinMaxVars", "op": "Const", "attr": {"value": {"tensor": {"dtype": "DT_FLOAT", "tensorShape": {"dim": [{"size": "3"}, {"size": "3"}, {"size": "512"}, {"size": "1"}]}}}, "dtype": {"type": "DT_FLOAT"}}}, {"name": "FeatureExtractor/MobilenetV1/MobilenetV1/Conv2d_12_pointwise/weights_quant/FakeQuantWithMinMaxVars", "op": "Const", "attr": {"dtype": {"type": "DT_FLOAT"}, "value": {"tensor": {"dtype": "DT_FLOAT", "tensorShape": {"dim": [{"size": "1"}, {"size": "1"}, {"size": "512"}, {"size": "1024"}]}}}}}, {"name": "BoxPredictor_3/ClassPredictor/weights_quant/FakeQuantWithMinMaxVars", "op": "Const", "attr": {"value": {"tensor": {"dtype": "DT_FLOAT", "tensorShape": {"dim": [{"size": "1"}, {"size": "1"}, {"size": "256"}, {"size": "24"}]}}}, "dtype": {"type": "DT_FLOAT"}}}, {"name": "BoxPredictor_3/ClassPredictor/act_quant/min", "op": "Const", "attr": {"dtype": {"type": "DT_FLOAT"}, "value": {"tensor": {"dtype": "DT_FLOAT", "tensorShape": {}}}}}, {"name": "FeatureExtractor/MobilenetV1/MobilenetV1/Conv2d_13_depthwise/weights_quant/FakeQuantWithMinMaxVars", "op": "Const", "attr": {"dtype": {"type": "DT_FLOAT"}, "value": {"tensor": {"dtype": "DT_FLOAT", "tensorShape": {"dim": [{"size": "3"}, {"size": "3"}, {"size": "1024"}, {"size": "1"}]}}}}}, {"name": "BoxPredictor_4/ClassPredictor/weights_quant/FakeQuantWithMinMaxVars", "op": "Const", "attr": {"dtype": {"type": "DT_FLOAT"}, "value": {"tensor": {"dtype": "DT_FLOAT", "tensorShape": {"dim": [{"size": "1"}, {"size": "1"}, {"size": "256"}, {"size": "24"}]}}}}}, {"name": "BoxPredictor_3/ClassPredictor/act_quant/max", "op": "Const", "attr": {"value": {"tensor": {"dtype": "DT_FLOAT", "tensorShape": {}}}, "dtype": {"type": "DT_FLOAT"}}}, {"name": "FeatureExtractor/MobilenetV1/MobilenetV1/Conv2d_13_pointwise/weights_quant/FakeQuantWithMinMaxVars", "op": "Const", "attr": {"value": {"tensor": {"dtype": "DT_FLOAT", "tensorShape": {"dim": [{"size": "1"}, {"size": "1"}, {"size": "1024"}, {"size": "1024"}]}}}, "dtype": {"type": "DT_FLOAT"}}}, {"name": "FeatureExtractor/MobilenetV1/MobilenetV1/Conv2d_13_pointwise/act_quant/max", "op": "Const", "attr": {"value": {"tensor": {"dtype": "DT_FLOAT", "tensorShape": {}}}, "dtype": {"type": "DT_FLOAT"}}}, {"name": "FeatureExtractor/MobilenetV1/Conv2d_13_pointwise_1_Conv2d_2_1x1_256/weights_quant/FakeQuantWithMinMaxVars", "op": "Const", "attr": {"dtype": {"type": "DT_FLOAT"}, "value": {"tensor": {"dtype": "DT_FLOAT", "tensorShape": {"dim": [{"size": "1"}, {"size": "1"}, {"size": "1024"}, {"size": "256"}]}}}}}, {"name": "FeatureExtractor/MobilenetV1/Conv2d_13_pointwise_1_Conv2d_2_1x1_256/act_quant/min", "op": "Const", "attr": {"dtype": {"type": "DT_FLOAT"}, "value": {"tensor": {"dtype": "DT_FLOAT", "tensorShape": {}}}}}, {"name": "BoxPredictor_4/ClassPredictor/act_quant/min", "op": "Const", "attr": {"dtype": {"type": "DT_FLOAT"}, "value": {"tensor": {"dtype": "DT_FLOAT", "tensorShape": {}}}}}, {"name": "FeatureExtractor/MobilenetV1/Conv2d_13_pointwise_1_Conv2d_2_1x1_256/act_quant/max", "op": "Const", "attr": {"dtype": {"type": "DT_FLOAT"}, "value": {"tensor": {"dtype": "DT_FLOAT", "tensorShape": {}}}}}, {"name": "BoxPredictor_4/BoxEncodingPredictor/weights_quant/FakeQuantWithMinMaxVars", "op": "Const", "attr": {"value": {"tensor": {"dtype": "DT_FLOAT", "tensorShape": {"dim": [{"size": "1"}, {"size": "1"}, {"size": "256"}, {"size": "24"}]}}}, "dtype": {"type": "DT_FLOAT"}}}, {"name": "FeatureExtractor/MobilenetV1/Conv2d_13_pointwise_2_Conv2d_2_3x3_s2_512/weights_quant/FakeQuantWithMinMaxVars", "op": "Const", "attr": {"dtype": {"type": "DT_FLOAT"}, "value": {"tensor": {"dtype": "DT_FLOAT", "tensorShape": {"dim": [{"size": "3"}, {"size": "3"}, {"size": "256"}, {"size": "512"}]}}}}}, {"name": "FeatureExtractor/MobilenetV1/Conv2d_13_pointwise_2_Conv2d_2_3x3_s2_512/act_quant/min", "op": "Const", "attr": {"dtype": {"type": "DT_FLOAT"}, "value": {"tensor": {"dtype": "DT_FLOAT", "tensorShape": {}}}}}, {"name": "BoxPredictor_4/BoxEncodingPredictor/act_quant/min", "op": "Const", "attr": {"value": {"tensor": {"dtype": "DT_FLOAT", "tensorShape": {}}}, "dtype": {"type": "DT_FLOAT"}}}, {"name": "FeatureExtractor/MobilenetV1/Conv2d_13_pointwise_2_Conv2d_2_3x3_s2_512/act_quant/max", "op": "Const", "attr": {"value": {"tensor": {"dtype": "DT_FLOAT", "tensorShape": {}}}, "dtype": {"type": "DT_FLOAT"}}}, {"name": "BoxPredictor_4/BoxEncodingPredictor/act_quant/max", "op": "Const", "attr": {"value": {"tensor": {"dtype": "DT_FLOAT", "tensorShape": {}}}, "dtype": {"type": "DT_FLOAT"}}}, {"name": "FeatureExtractor/MobilenetV1/Conv2d_13_pointwise_1_Conv2d_3_1x1_128/weights_quant/FakeQuantWithMinMaxVars", "op": "Const", "attr": {"dtype": {"type": "DT_FLOAT"}, "value": {"tensor": {"dtype": "DT_FLOAT", "tensorShape": {"dim": [{"size": "1"}, {"size": "1"}, {"size": "512"}, {"size": "128"}]}}}}}, {"name": "FeatureExtractor/MobilenetV1/Conv2d_13_pointwise_1_Conv2d_3_1x1_128/act_quant/min", "op": "Const", "attr": {"dtype": {"type": "DT_FLOAT"}, "value": {"tensor": {"dtype": "DT_FLOAT", "tensorShape": {}}}}}, {"name": "FeatureExtractor/MobilenetV1/Conv2d_13_pointwise_1_Conv2d_3_1x1_128/act_quant/max", "op": "Const", "attr": {"dtype": {"type": "DT_FLOAT"}, "value": {"tensor": {"dtype": "DT_FLOAT", "tensorShape": {}}}}}, {"name": "FeatureExtractor/MobilenetV1/Conv2d_13_pointwise_2_Conv2d_3_3x3_s2_256/weights_quant/FakeQuantWithMinMaxVars", "op": "Const", "attr": {"dtype": {"type": "DT_FLOAT"}, "value": {"tensor": {"dtype": "DT_FLOAT", "tensorShape": {"dim": [{"size": "3"}, {"size": "3"}, {"size": "128"}, {"size": "256"}]}}}}}, {"name": "FeatureExtractor/MobilenetV1/Conv2d_13_pointwise_2_Conv2d_3_3x3_s2_256/act_quant/min", "op": "Const", "attr": {"dtype": {"type": "DT_FLOAT"}, "value": {"tensor": {"dtype": "DT_FLOAT", "tensorShape": {}}}}}, {"name": "FeatureExtractor/MobilenetV1/Conv2d_13_pointwise_2_Conv2d_3_3x3_s2_256/act_quant/max", "op": "Const", "attr": {"dtype": {"type": "DT_FLOAT"}, "value": {"tensor": {"dtype": "DT_FLOAT", "tensorShape": {}}}}}, {"name": "FeatureExtractor/MobilenetV1/Conv2d_13_pointwise_1_Conv2d_4_1x1_128/weights_quant/FakeQuantWithMinMaxVars", "op": "Const", "attr": {"value": {"tensor": {"dtype": "DT_FLOAT", "tensorShape": {"dim": [{"size": "1"}, {"size": "1"}, {"size": "256"}, {"size": "128"}]}}}, "dtype": {"type": "DT_FLOAT"}}}, {"name": "FeatureExtractor/MobilenetV1/Conv2d_13_pointwise_1_Conv2d_4_1x1_128/act_quant/min", "op": "Const", "attr": {"dtype": {"type": "DT_FLOAT"}, "value": {"tensor": {"dtype": "DT_FLOAT", "tensorShape": {}}}}}, {"name": "FeatureExtractor/MobilenetV1/Conv2d_13_pointwise_1_Conv2d_4_1x1_128/act_quant/max", "op": "Const", "attr": {"dtype": {"type": "DT_FLOAT"}, "value": {"tensor": {"dtype": "DT_FLOAT", "tensorShape": {}}}}}, {"name": "FeatureExtractor/MobilenetV1/Conv2d_13_pointwise_2_Conv2d_4_3x3_s2_256/weights_quant/FakeQuantWithMinMaxVars", "op": "Const", "attr": {"value": {"tensor": {"dtype": "DT_FLOAT", "tensorShape": {"dim": [{"size": "3"}, {"size": "3"}, {"size": "128"}, {"size": "256"}]}}}, "dtype": {"type": "DT_FLOAT"}}}, {"name": "FeatureExtractor/MobilenetV1/Conv2d_13_pointwise_2_Conv2d_4_3x3_s2_256/act_quant/min", "op": "Const", "attr": {"value": {"tensor": {"dtype": "DT_FLOAT", "tensorShape": {}}}, "dtype": {"type": "DT_FLOAT"}}}, {"name": "FeatureExtractor/MobilenetV1/Conv2d_13_pointwise_2_Conv2d_4_3x3_s2_256/act_quant/max", "op": "Const", "attr": {"value": {"tensor": {"dtype": "DT_FLOAT", "tensorShape": {}}}, "dtype": {"type": "DT_FLOAT"}}}, {"name": "FeatureExtractor/MobilenetV1/Conv2d_13_pointwise_1_Conv2d_5_1x1_64/weights_quant/FakeQuantWithMinMaxVars", "op": "Const", "attr": {"dtype": {"type": "DT_FLOAT"}, "value": {"tensor": {"dtype": "DT_FLOAT", "tensorShape": {"dim": [{"size": "1"}, {"size": "1"}, {"size": "256"}, {"size": "64"}]}}}}}, {"name": "FeatureExtractor/MobilenetV1/Conv2d_13_pointwise_1_Conv2d_5_1x1_64/act_quant/min", "op": "Const", "attr": {"value": {"tensor": {"dtype": "DT_FLOAT", "tensorShape": {}}}, "dtype": {"type": "DT_FLOAT"}}}, {"name": "BoxPredictor_0/BoxEncodingPredictor/biases", "op": "Const", "attr": {"dtype": {"type": "DT_FLOAT"}, "value": {"tensor": {"dtype": "DT_FLOAT", "tensorShape": {"dim": [{"size": "12"}]}}}}}, {"name": "FeatureExtractor/MobilenetV1/Conv2d_13_pointwise_1_Conv2d_5_1x1_64/act_quant/max", "op": "Const", "attr": {"dtype": {"type": "DT_FLOAT"}, "value": {"tensor": {"dtype": "DT_FLOAT", "tensorShape": {}}}}}, {"name": "BoxPredictor_0/Reshape/shape/1", "op": "Const", "attr": {"value": {"tensor": {"dtype": "DT_INT32", "tensorShape": {}}}, "dtype": {"type": "DT_INT32"}}}, {"name": "BoxPredictor_0/Reshape/shape/3", "op": "Const", "attr": {"dtype": {"type": "DT_INT32"}, "value": {"tensor": {"dtype": "DT_INT32", "tensorShape": {}}}}}, {"name": "BoxPredictor_0/ClassPredictor/biases", "op": "Const", "attr": {"value": {"tensor": {"dtype": "DT_FLOAT", "tensorShape": {"dim": [{"size": "12"}]}}}, "dtype": {"type": "DT_FLOAT"}}}, {"name": "BoxPredictor_1/BoxEncodingPredictor/biases", "op": "Const", "attr": {"dtype": {"type": "DT_FLOAT"}, "value": {"tensor": {"dtype": "DT_FLOAT", "tensorShape": {"dim": [{"size": "24"}]}}}}}, {"name": "BoxPredictor_1/ClassPredictor/biases", "op": "Const", "attr": {"value": {"tensor": {"dtype": "DT_FLOAT", "tensorShape": {"dim": [{"size": "24"}]}}}, "dtype": {"type": "DT_FLOAT"}}}, {"name": "FeatureExtractor/MobilenetV1/Conv2d_13_pointwise_2_Conv2d_5_3x3_s2_128/weights_quant/FakeQuantWithMinMaxVars", "op": "Const", "attr": {"value": {"tensor": {"dtype": "DT_FLOAT", "tensorShape": {"dim": [{"size": "3"}, {"size": "3"}, {"size": "64"}, {"size": "128"}]}}}, "dtype": {"type": "DT_FLOAT"}}}, {"name": "BoxPredictor_2/BoxEncodingPredictor/biases", "op": "Const", "attr": {"value": {"tensor": {"dtype": "DT_FLOAT", "tensorShape": {"dim": [{"size": "24"}]}}}, "dtype": {"type": "DT_FLOAT"}}}, {"name": "BoxPredictor_2/ClassPredictor/biases", "op": "Const", "attr": {"dtype": {"type": "DT_FLOAT"}, "value": {"tensor": {"dtype": "DT_FLOAT", "tensorShape": {"dim": [{"size": "24"}]}}}}}, {"name": "FeatureExtractor/MobilenetV1/Conv2d_13_pointwise_2_Conv2d_5_3x3_s2_128/act_quant/min", "op": "Const", "attr": {"dtype": {"type": "DT_FLOAT"}, "value": {"tensor": {"dtype": "DT_FLOAT", "tensorShape": {}}}}}, {"name": "BoxPredictor_3/BoxEncodingPredictor/biases", "op": "Const", "attr": {"value": {"tensor": {"dtype": "DT_FLOAT", "tensorShape": {"dim": [{"size": "24"}]}}}, "dtype": {"type": "DT_FLOAT"}}}, {"name": "FeatureExtractor/MobilenetV1/Conv2d_13_pointwise_2_Conv2d_5_3x3_s2_128/act_quant/max", "op": "Const", "attr": {"dtype": {"type": "DT_FLOAT"}, "value": {"tensor": {"dtype": "DT_FLOAT", "tensorShape": {}}}}}, {"name": "BoxPredictor_3/ClassPredictor/biases", "op": "Const", "attr": {"value": {"tensor": {"dtype": "DT_FLOAT", "tensorShape": {"dim": [{"size": "24"}]}}}, "dtype": {"type": "DT_FLOAT"}}}, {"name": "BoxPredictor_4/BoxEncodingPredictor/biases", "op": "Const", "attr": {"dtype": {"type": "DT_FLOAT"}, "value": {"tensor": {"dtype": "DT_FLOAT", "tensorShape": {"dim": [{"size": "24"}]}}}}}, {"name": "BoxPredictor_4/ClassPredictor/biases", "op": "Const", "attr": {"value": {"tensor": {"dtype": "DT_FLOAT", "tensorShape": {"dim": [{"size": "24"}]}}}, "dtype": {"type": "DT_FLOAT"}}}, {"name": "BoxPredictor_5/BoxEncodingPredictor/weights_quant/FakeQuantWithMinMaxVars", "op": "Const", "attr": {"value": {"tensor": {"dtype": "DT_FLOAT", "tensorShape": {"dim": [{"size": "1"}, {"size": "1"}, {"size": "128"}, {"size": "24"}]}}}, "dtype": {"type": "DT_FLOAT"}}}, {"name": "BoxPredictor_5/BoxEncodingPredictor/biases", "op": "Const", "attr": {"value": {"tensor": {"dtype": "DT_FLOAT", "tensorShape": {"dim": [{"size": "24"}]}}}, "dtype": {"type": "DT_FLOAT"}}}, {"name": "BoxPredictor_5/ClassPredictor/biases", "op": "Const", "attr": {"dtype": {"type": "DT_FLOAT"}, "value": {"tensor": {"dtype": "DT_FLOAT", "tensorShape": {"dim": [{"size": "24"}]}}}}}, {"name": "Postprocessor/strided_slice_1/stack_1", "op": "Const", "attr": {"dtype": {"type": "DT_INT32"}, "value": {"tensor": {"dtype": "DT_INT32", "tensorShape": {"dim": [{"size": "1"}]}}}}}, {"name": "Postprocessor/Reshape/shape", "op": "Const", "attr": {"value": {"tensor": {"dtype": "DT_INT32", "tensorShape": {"dim": [{"size": "2"}]}}}, "dtype": {"type": "DT_INT32"}}}, {"name": "Postprocessor/Decode/get_center_coordinates_and_sizes/transpose/perm", "op": "Const", "attr": {"value": {"tensor": {"dtype": "DT_INT32", "tensorShape": {"dim": [{"size": "2"}]}}}, "dtype": {"type": "DT_INT32"}}}, {"name": "Postprocessor/ExpandDims_1/dim", "op": "Const", "attr": {"dtype": {"type": "DT_INT32"}, "value": {"tensor": {"dtype": "DT_INT32", "tensorShape": {}}}}}, {"name": "Postprocessor/Slice/begin", "op": "Const", "attr": {"dtype": {"type": "DT_INT32"}, "value": {"tensor": {"dtype": "DT_INT32", "tensorShape": {"dim": [{"size": "3"}]}}}}}, {"name": "Postprocessor/Slice/size", "op": "Const", "attr": {"dtype": {"type": "DT_INT32"}, "value": {"tensor": {"dtype": "DT_INT32", "tensorShape": {"dim": [{"size": "3"}]}}}}}, {"name": "BoxPredictor_5/ClassPredictor/act_quant/min", "op": "Const", "attr": {"value": {"tensor": {"dtype": "DT_FLOAT", "tensorShape": {}}}, "dtype": {"type": "DT_FLOAT"}}}, {"name": "BoxPredictor_5/ClassPredictor/act_quant/max", "op": "Const", "attr": {"dtype": {"type": "DT_FLOAT"}, "value": {"tensor": {"dtype": "DT_FLOAT", "tensorShape": {}}}}}, {"name": "BoxPredictor_5/ClassPredictor/weights_quant/FakeQuantWithMinMaxVars", "op": "Const", "attr": {"dtype": {"type": "DT_FLOAT"}, "value": {"tensor": {"dtype": "DT_FLOAT", "tensorShape": {"dim": [{"size": "1"}, {"size": "1"}, {"size": "128"}, {"size": "24"}]}}}}}, {"name": "FeatureExtractor/MobilenetV1/MobilenetV1/Conv2d_0/BatchNorm_Fold/bias", "op": "Const", "attr": {"value": {"tensor": {"dtype": "DT_FLOAT", "tensorShape": {"dim": [{"size": "32"}]}}}, "dtype": {"type": "DT_FLOAT"}}}, {"name": "FeatureExtractor/MobilenetV1/MobilenetV1/Conv2d_1_depthwise/BatchNorm_Fold/bias", "op": "Const", "attr": {"value": {"tensor": {"dtype": "DT_FLOAT", "tensorShape": {"dim": [{"size": "32"}]}}}, "dtype": {"type": "DT_FLOAT"}}}, {"name": "FeatureExtractor/MobilenetV1/MobilenetV1/Conv2d_1_pointwise/BatchNorm_Fold/bias", "op": "Const", "attr": {"value": {"tensor": {"dtype": "DT_FLOAT", "tensorShape": {"dim": [{"size": "64"}]}}}, "dtype": {"type": "DT_FLOAT"}}}, {"name": "FeatureExtractor/MobilenetV1/MobilenetV1/Conv2d_2_depthwise/BatchNorm_Fold/bias", "op": "Const", "attr": {"dtype": {"type": "DT_FLOAT"}, "value": {"tensor": {"dtype": "DT_FLOAT", "tensorShape": {"dim": [{"size": "64"}]}}}}}, {"name": "FeatureExtractor/MobilenetV1/MobilenetV1/Conv2d_2_pointwise/BatchNorm_Fold/bias", "op": "Const", "attr": {"value": {"tensor": {"dtype": "DT_FLOAT", "tensorShape": {"dim": [{"size": "128"}]}}}, "dtype": {"type": "DT_FLOAT"}}}, {"name": "FeatureExtractor/MobilenetV1/MobilenetV1/Conv2d_3_depthwise/BatchNorm_Fold/bias", "op": "Const", "attr": {"dtype": {"type": "DT_FLOAT"}, "value": {"tensor": {"dtype": "DT_FLOAT", "tensorShape": {"dim": [{"size": "128"}]}}}}}, {"name": "FeatureExtractor/MobilenetV1/MobilenetV1/Conv2d_3_pointwise/BatchNorm_Fold/bias", "op": "Const", "attr": {"value": {"tensor": {"dtype": "DT_FLOAT", "tensorShape": {"dim": [{"size": "128"}]}}}, "dtype": {"type": "DT_FLOAT"}}}, {"name": "FeatureExtractor/MobilenetV1/MobilenetV1/Conv2d_4_depthwise/BatchNorm_Fold/bias", "op": "Const", "attr": {"value": {"tensor": {"dtype": "DT_FLOAT", "tensorShape": {"dim": [{"size": "128"}]}}}, "dtype": {"type": "DT_FLOAT"}}}, {"name": "FeatureExtractor/MobilenetV1/MobilenetV1/Conv2d_4_pointwise/BatchNorm_Fold/bias", "op": "Const", "attr": {"value": {"tensor": {"dtype": "DT_FLOAT", "tensorShape": {"dim": [{"size": "256"}]}}}, "dtype": {"type": "DT_FLOAT"}}}, {"name": "FeatureExtractor/MobilenetV1/MobilenetV1/Conv2d_5_depthwise/BatchNorm_Fold/bias", "op": "Const", "attr": {"dtype": {"type": "DT_FLOAT"}, "value": {"tensor": {"dtype": "DT_FLOAT", "tensorShape": {"dim": [{"size": "256"}]}}}}}, {"name": "FeatureExtractor/MobilenetV1/MobilenetV1/Conv2d_5_pointwise/BatchNorm_Fold/bias", "op": "Const", "attr": {"dtype": {"type": "DT_FLOAT"}, "value": {"tensor": {"dtype": "DT_FLOAT", "tensorShape": {"dim": [{"size": "256"}]}}}}}, {"name": "FeatureExtractor/MobilenetV1/MobilenetV1/Conv2d_6_depthwise/BatchNorm_Fold/bias", "op": "Const", "attr": {"value": {"tensor": {"dtype": "DT_FLOAT", "tensorShape": {"dim": [{"size": "256"}]}}}, "dtype": {"type": "DT_FLOAT"}}}, {"name": "FeatureExtractor/MobilenetV1/MobilenetV1/Conv2d_6_pointwise/BatchNorm_Fold/bias", "op": "Const", "attr": {"value": {"tensor": {"dtype": "DT_FLOAT", "tensorShape": {"dim": [{"size": "512"}]}}}, "dtype": {"type": "DT_FLOAT"}}}, {"name": "FeatureExtractor/MobilenetV1/MobilenetV1/Conv2d_7_depthwise/BatchNorm_Fold/bias", "op": "Const", "attr": {"value": {"tensor": {"dtype": "DT_FLOAT", "tensorShape": {"dim": [{"size": "512"}]}}}, "dtype": {"type": "DT_FLOAT"}}}, {"name": "FeatureExtractor/MobilenetV1/MobilenetV1/Conv2d_7_pointwise/BatchNorm_Fold/bias", "op": "Const", "attr": {"dtype": {"type": "DT_FLOAT"}, "value": {"tensor": {"dtype": "DT_FLOAT", "tensorShape": {"dim": [{"size": "512"}]}}}}}, {"name": "FeatureExtractor/MobilenetV1/MobilenetV1/Conv2d_8_depthwise/BatchNorm_Fold/bias", "op": "Const", "attr": {"dtype": {"type": "DT_FLOAT"}, "value": {"tensor": {"dtype": "DT_FLOAT", "tensorShape": {"dim": [{"size": "512"}]}}}}}, {"name": "FeatureExtractor/MobilenetV1/MobilenetV1/Conv2d_8_pointwise/BatchNorm_Fold/bias", "op": "Const", "attr": {"dtype": {"type": "DT_FLOAT"}, "value": {"tensor": {"dtype": "DT_FLOAT", "tensorShape": {"dim": [{"size": "512"}]}}}}}, {"name": "FeatureExtractor/MobilenetV1/MobilenetV1/Conv2d_9_depthwise/BatchNorm_Fold/bias", "op": "Const", "attr": {"dtype": {"type": "DT_FLOAT"}, "value": {"tensor": {"dtype": "DT_FLOAT", "tensorShape": {"dim": [{"size": "512"}]}}}}}, {"name": "FeatureExtractor/MobilenetV1/MobilenetV1/Conv2d_9_pointwise/BatchNorm_Fold/bias", "op": "Const", "attr": {"dtype": {"type": "DT_FLOAT"}, "value": {"tensor": {"dtype": "DT_FLOAT", "tensorShape": {"dim": [{"size": "512"}]}}}}}, {"name": "FeatureExtractor/MobilenetV1/MobilenetV1/Conv2d_10_depthwise/BatchNorm_Fold/bias", "op": "Const", "attr": {"value": {"tensor": {"dtype": "DT_FLOAT", "tensorShape": {"dim": [{"size": "512"}]}}}, "dtype": {"type": "DT_FLOAT"}}}, {"name": "FeatureExtractor/MobilenetV1/MobilenetV1/Conv2d_10_pointwise/BatchNorm_Fold/bias", "op": "Const", "attr": {"dtype": {"type": "DT_FLOAT"}, "value": {"tensor": {"dtype": "DT_FLOAT", "tensorShape": {"dim": [{"size": "512"}]}}}}}, {"name": "FeatureExtractor/MobilenetV1/MobilenetV1/Conv2d_11_depthwise/BatchNorm_Fold/bias", "op": "Const", "attr": {"value": {"tensor": {"dtype": "DT_FLOAT", "tensorShape": {"dim": [{"size": "512"}]}}}, "dtype": {"type": "DT_FLOAT"}}}, {"name": "FeatureExtractor/MobilenetV1/MobilenetV1/Conv2d_11_pointwise/BatchNorm_Fold/bias", "op": "Const", "attr": {"dtype": {"type": "DT_FLOAT"}, "value": {"tensor": {"dtype": "DT_FLOAT", "tensorShape": {"dim": [{"size": "512"}]}}}}}, {"name": "FeatureExtractor/MobilenetV1/MobilenetV1/Conv2d_12_depthwise/BatchNorm_Fold/bias", "op": "Const", "attr": {"value": {"tensor": {"dtype": "DT_FLOAT", "tensorShape": {"dim": [{"size": "512"}]}}}, "dtype": {"type": "DT_FLOAT"}}}, {"name": "FeatureExtractor/MobilenetV1/MobilenetV1/Conv2d_12_pointwise/BatchNorm_Fold/bias", "op": "Const", "attr": {"value": {"tensor": {"dtype": "DT_FLOAT", "tensorShape": {"dim": [{"size": "1024"}]}}}, "dtype": {"type": "DT_FLOAT"}}}, {"name": "FeatureExtractor/MobilenetV1/MobilenetV1/Conv2d_13_depthwise/BatchNorm_Fold/bias", "op": "Const", "attr": {"value": {"tensor": {"dtype": "DT_FLOAT", "tensorShape": {"dim": [{"size": "1024"}]}}}, "dtype": {"type": "DT_FLOAT"}}}, {"name": "FeatureExtractor/MobilenetV1/MobilenetV1/Conv2d_13_pointwise/BatchNorm_Fold/bias", "op": "Const", "attr": {"value": {"tensor": {"dtype": "DT_FLOAT", "tensorShape": {"dim": [{"size": "1024"}]}}}, "dtype": {"type": "DT_FLOAT"}}}, {"name": "FeatureExtractor/MobilenetV1/Conv2d_13_pointwise_1_Conv2d_2_1x1_256/BatchNorm_Fold/bias", "op": "Const", "attr": {"value": {"tensor": {"dtype": "DT_FLOAT", "tensorShape": {"dim": [{"size": "256"}]}}}, "dtype": {"type": "DT_FLOAT"}}}, {"name": "FeatureExtractor/MobilenetV1/Conv2d_13_pointwise_2_Conv2d_2_3x3_s2_512/BatchNorm_Fold/bias", "op": "Const", "attr": {"value": {"tensor": {"dtype": "DT_FLOAT", "tensorShape": {"dim": [{"size": "512"}]}}}, "dtype": {"type": "DT_FLOAT"}}}, {"name": "FeatureExtractor/MobilenetV1/Conv2d_13_pointwise_1_Conv2d_3_1x1_128/BatchNorm_Fold/bias", "op": "Const", "attr": {"value": {"tensor": {"dtype": "DT_FLOAT", "tensorShape": {"dim": [{"size": "128"}]}}}, "dtype": {"type": "DT_FLOAT"}}}, {"name": "FeatureExtractor/MobilenetV1/Conv2d_13_pointwise_2_Conv2d_3_3x3_s2_256/BatchNorm_Fold/bias", "op": "Const", "attr": {"dtype": {"type": "DT_FLOAT"}, "value": {"tensor": {"dtype": "DT_FLOAT", "tensorShape": {"dim": [{"size": "256"}]}}}}}, {"name": "FeatureExtractor/MobilenetV1/Conv2d_13_pointwise_1_Conv2d_4_1x1_128/BatchNorm_Fold/bias", "op": "Const", "attr": {"value": {"tensor": {"dtype": "DT_FLOAT", "tensorShape": {"dim": [{"size": "128"}]}}}, "dtype": {"type": "DT_FLOAT"}}}, {"name": "FeatureExtractor/MobilenetV1/Conv2d_13_pointwise_2_Conv2d_4_3x3_s2_256/BatchNorm_Fold/bias", "op": "Const", "attr": {"dtype": {"type": "DT_FLOAT"}, "value": {"tensor": {"dtype": "DT_FLOAT", "tensorShape": {"dim": [{"size": "256"}]}}}}}, {"name": "FeatureExtractor/MobilenetV1/Conv2d_13_pointwise_1_Conv2d_5_1x1_64/BatchNorm_Fold/bias", "op": "Const", "attr": {"dtype": {"type": "DT_FLOAT"}, "value": {"tensor": {"dtype": "DT_FLOAT", "tensorShape": {"dim": [{"size": "64"}]}}}}}, {"name": "FeatureExtractor/MobilenetV1/Conv2d_13_pointwise_2_Conv2d_5_3x3_s2_128/BatchNorm_Fold/bias", "op": "Const", "attr": {"value": {"tensor": {"dtype": "DT_FLOAT", "tensorShape": {"dim": [{"size": "128"}]}}}, "dtype": {"type": "DT_FLOAT"}}}, {"name": "FeatureExtractor/MobilenetV1/MobilenetV1/Conv2d_0/weights_quant/FakeQuantWithMinMaxVars", "op": "Const", "attr": {"dtype": {"type": "DT_FLOAT"}, "value": {"tensor": {"dtype": "DT_FLOAT", "tensorShape": {"dim": [{"size": "3"}, {"size": "3"}, {"size": "3"}, {"size": "32"}]}}}}}, {"name": "FeatureExtractor/MobilenetV1/MobilenetV1/Conv2d_0/act_quant/max", "op": "Const", "attr": {"value": {"tensor": {"dtype": "DT_FLOAT", "tensorShape": {}}}, "dtype": {"type": "DT_FLOAT"}}}, {"name": "FeatureExtractor/MobilenetV1/MobilenetV1/Conv2d_1_depthwise/weights_quant/FakeQuantWithMinMaxVars", "op": "Const", "attr": {"dtype": {"type": "DT_FLOAT"}, "value": {"tensor": {"dtype": "DT_FLOAT", "tensorShape": {"dim": [{"size": "3"}, {"size": "3"}, {"size": "32"}, {"size": "1"}]}}}}}, {"name": "FeatureExtractor/MobilenetV1/MobilenetV1/Conv2d_1_depthwise/act_quant/max", "op": "Const", "attr": {"dtype": {"type": "DT_FLOAT"}, "value": {"tensor": {"dtype": "DT_FLOAT", "tensorShape": {}}}}}, {"name": "BoxPredictor_0/BoxEncodingPredictor/weights_quant/FakeQuantWithMinMaxVars", "op": "Const", "attr": {"dtype": {"type": "DT_FLOAT"}, "value": {"tensor": {"dtype": "DT_FLOAT", "tensorShape": {"dim": [{"size": "1"}, {"size": "1"}, {"size": "512"}, {"size": "12"}]}}}}}, {"name": "FeatureExtractor/MobilenetV1/MobilenetV1/Conv2d_1_pointwise/weights_quant/FakeQuantWithMinMaxVars", "op": "Const", "attr": {"dtype": {"type": "DT_FLOAT"}, "value": {"tensor": {"dtype": "DT_FLOAT", "tensorShape": {"dim": [{"size": "1"}, {"size": "1"}, {"size": "32"}, {"size": "64"}]}}}}}, {"name": "BoxPredictor_0/BoxEncodingPredictor/act_quant/min", "op": "Const", "attr": {"value": {"tensor": {"dtype": "DT_FLOAT", "tensorShape": {}}}, "dtype": {"type": "DT_FLOAT"}}}, {"name": "FeatureExtractor/MobilenetV1/MobilenetV1/Conv2d_1_pointwise/act_quant/max", "op": "Const", "attr": {"value": {"tensor": {"dtype": "DT_FLOAT", "tensorShape": {}}}, "dtype": {"type": "DT_FLOAT"}}}, {"name": "BoxPredictor_0/BoxEncodingPredictor/act_quant/max", "op": "Const", "attr": {"dtype": {"type": "DT_FLOAT"}, "value": {"tensor": {"dtype": "DT_FLOAT", "tensorShape": {}}}}}, {"name": "FeatureExtractor/MobilenetV1/MobilenetV1/Conv2d_2_depthwise/weights_quant/FakeQuantWithMinMaxVars", "op": "Const", "attr": {"dtype": {"type": "DT_FLOAT"}, "value": {"tensor": {"dtype": "DT_FLOAT", "tensorShape": {"dim": [{"size": "3"}, {"size": "3"}, {"size": "64"}, {"size": "1"}]}}}}}, {"name": "FeatureExtractor/MobilenetV1/MobilenetV1/Conv2d_2_depthwise/act_quant/max", "op": "Const", "attr": {"dtype": {"type": "DT_FLOAT"}, "value": {"tensor": {"dtype": "DT_FLOAT", "tensorShape": {}}}}}, {"name": "FeatureExtractor/MobilenetV1/MobilenetV1/Conv2d_2_pointwise/weights_quant/FakeQuantWithMinMaxVars", "op": "Const", "attr": {"value": {"tensor": {"dtype": "DT_FLOAT", "tensorShape": {"dim": [{"size": "1"}, {"size": "1"}, {"size": "64"}, {"size": "128"}]}}}, "dtype": {"type": "DT_FLOAT"}}}, {"name": "FeatureExtractor/MobilenetV1/MobilenetV1/Conv2d_2_pointwise/act_quant/max", "op": "Const", "attr": {"value": {"tensor": {"dtype": "DT_FLOAT", "tensorShape": {}}}, "dtype": {"type": "DT_FLOAT"}}}, {"name": "BoxPredictor_0/ClassPredictor/weights_quant/FakeQuantWithMinMaxVars", "op": "Const", "attr": {"dtype": {"type": "DT_FLOAT"}, "value": {"tensor": {"dtype": "DT_FLOAT", "tensorShape": {"dim": [{"size": "1"}, {"size": "1"}, {"size": "512"}, {"size": "12"}]}}}}}, {"name": "FeatureExtractor/MobilenetV1/MobilenetV1/Conv2d_3_depthwise/weights_quant/FakeQuantWithMinMaxVars", "op": "Const", "attr": {"value": {"tensor": {"dtype": "DT_FLOAT", "tensorShape": {"dim": [{"size": "3"}, {"size": "3"}, {"size": "128"}, {"size": "1"}]}}}, "dtype": {"type": "DT_FLOAT"}}}, {"name": "FeatureExtractor/MobilenetV1/MobilenetV1/Conv2d_3_depthwise/act_quant/max", "op": "Const", "attr": {"dtype": {"type": "DT_FLOAT"}, "value": {"tensor": {"dtype": "DT_FLOAT", "tensorShape": {}}}}}, {"name": "BoxPredictor_0/ClassPredictor/act_quant/min", "op": "Const", "attr": {"dtype": {"type": "DT_FLOAT"}, "value": {"tensor": {"dtype": "DT_FLOAT", "tensorShape": {}}}}}, {"name": "FeatureExtractor/MobilenetV1/MobilenetV1/Conv2d_3_pointwise/weights_quant/FakeQuantWithMinMaxVars", "op": "Const", "attr": {"value": {"tensor": {"dtype": "DT_FLOAT", "tensorShape": {"dim": [{"size": "1"}, {"size": "1"}, {"size": "128"}, {"size": "128"}]}}}, "dtype": {"type": "DT_FLOAT"}}}, {"name": "FeatureExtractor/MobilenetV1/MobilenetV1/Conv2d_3_pointwise/act_quant/max", "op": "Const", "attr": {"dtype": {"type": "DT_FLOAT"}, "value": {"tensor": {"dtype": "DT_FLOAT", "tensorShape": {}}}}}, {"name": "FeatureExtractor/MobilenetV1/MobilenetV1/Conv2d_4_depthwise/weights_quant/FakeQuantWithMinMaxVars", "op": "Const", "attr": {"dtype": {"type": "DT_FLOAT"}, "value": {"tensor": {"dtype": "DT_FLOAT", "tensorShape": {"dim": [{"size": "3"}, {"size": "3"}, {"size": "128"}, {"size": "1"}]}}}}}, {"name": "FeatureExtractor/MobilenetV1/MobilenetV1/Conv2d_4_depthwise/act_quant/max", "op": "Const", "attr": {"dtype": {"type": "DT_FLOAT"}, "value": {"tensor": {"dtype": "DT_FLOAT", "tensorShape": {}}}}}, {"name": "BoxPredictor_1/BoxEncodingPredictor/weights_quant/FakeQuantWithMinMaxVars", "op": "Const", "attr": {"dtype": {"type": "DT_FLOAT"}, "value": {"tensor": {"dtype": "DT_FLOAT", "tensorShape": {"dim": [{"size": "1"}, {"size": "1"}, {"size": "1024"}, {"size": "24"}]}}}}}, {"name": "FeatureExtractor/MobilenetV1/MobilenetV1/Conv2d_4_pointwise/weights_quant/FakeQuantWithMinMaxVars", "op": "Const", "attr": {"dtype": {"type": "DT_FLOAT"}, "value": {"tensor": {"dtype": "DT_FLOAT", "tensorShape": {"dim": [{"size": "1"}, {"size": "1"}, {"size": "128"}, {"size": "256"}]}}}}}, {"name": "FeatureExtractor/MobilenetV1/MobilenetV1/Conv2d_4_pointwise/act_quant/max", "op": "Const", "attr": {"value": {"tensor": {"dtype": "DT_FLOAT", "tensorShape": {}}}, "dtype": {"type": "DT_FLOAT"}}}, {"name": "BoxPredictor_1/BoxEncodingPredictor/act_quant/min", "op": "Const", "attr": {"dtype": {"type": "DT_FLOAT"}, "value": {"tensor": {"dtype": "DT_FLOAT", "tensorShape": {}}}}}, {"name": "FeatureExtractor/MobilenetV1/MobilenetV1/Conv2d_5_depthwise/weights_quant/FakeQuantWithMinMaxVars", "op": "Const", "attr": {"dtype": {"type": "DT_FLOAT"}, "value": {"tensor": {"dtype": "DT_FLOAT", "tensorShape": {"dim": [{"size": "3"}, {"size": "3"}, {"size": "256"}, {"size": "1"}]}}}}}, {"name": "BoxPredictor_1/BoxEncodingPredictor/act_quant/max", "op": "Const", "attr": {"dtype": {"type": "DT_FLOAT"}, "value": {"tensor": {"dtype": "DT_FLOAT", "tensorShape": {}}}}}, {"name": "FeatureExtractor/MobilenetV1/MobilenetV1/Conv2d_5_depthwise/act_quant/max", "op": "Const", "attr": {"dtype": {"type": "DT_FLOAT"}, "value": {"tensor": {"dtype": "DT_FLOAT", "tensorShape": {}}}}}, {"name": "FeatureExtractor/MobilenetV1/MobilenetV1/Conv2d_5_pointwise/weights_quant/FakeQuantWithMinMaxVars", "op": "Const", "attr": {"dtype": {"type": "DT_FLOAT"}, "value": {"tensor": {"dtype": "DT_FLOAT", "tensorShape": {"dim": [{"size": "1"}, {"size": "1"}, {"size": "256"}, {"size": "256"}]}}}}}, {"name": "FeatureExtractor/MobilenetV1/MobilenetV1/Conv2d_5_pointwise/act_quant/max", "op": "Const", "attr": {"dtype": {"type": "DT_FLOAT"}, "value": {"tensor": {"dtype": "DT_FLOAT", "tensorShape": {}}}}}, {"name": "FeatureExtractor/MobilenetV1/MobilenetV1/Conv2d_6_depthwise/weights_quant/FakeQuantWithMinMaxVars", "op": "Const", "attr": {"value": {"tensor": {"dtype": "DT_FLOAT", "tensorShape": {"dim": [{"size": "3"}, {"size": "3"}, {"size": "256"}, {"size": "1"}]}}}, "dtype": {"type": "DT_FLOAT"}}}, {"name": "BoxPredictor_1/ClassPredictor/weights_quant/FakeQuantWithMinMaxVars", "op": "Const", "attr": {"value": {"tensor": {"dtype": "DT_FLOAT", "tensorShape": {"dim": [{"size": "1"}, {"size": "1"}, {"size": "1024"}, {"size": "24"}]}}}, "dtype": {"type": "DT_FLOAT"}}}, {"name": "FeatureExtractor/MobilenetV1/MobilenetV1/Conv2d_6_depthwise/act_quant/max", "op": "Const", "attr": {"value": {"tensor": {"dtype": "DT_FLOAT", "tensorShape": {}}}, "dtype": {"type": "DT_FLOAT"}}}, {"name": "BoxPredictor_1/ClassPredictor/act_quant/min", "op": "Const", "attr": {"value": {"tensor": {"dtype": "DT_FLOAT", "tensorShape": {}}}, "dtype": {"type": "DT_FLOAT"}}}, {"name": "FeatureExtractor/MobilenetV1/MobilenetV1/Conv2d_6_pointwise/weights_quant/FakeQuantWithMinMaxVars", "op": "Const", "attr": {"value": {"tensor": {"dtype": "DT_FLOAT", "tensorShape": {"dim": [{"size": "1"}, {"size": "1"}, {"size": "256"}, {"size": "512"}]}}}, "dtype": {"type": "DT_FLOAT"}}}, {"name": "FeatureExtractor/MobilenetV1/MobilenetV1/Conv2d_6_pointwise/act_quant/max", "op": "Const", "attr": {"dtype": {"type": "DT_FLOAT"}, "value": {"tensor": {"dtype": "DT_FLOAT", "tensorShape": {}}}}}, {"name": "BoxPredictor_1/ClassPredictor/act_quant/max", "op": "Const", "attr": {"dtype": {"type": "DT_FLOAT"}, "value": {"tensor": {"dtype": "DT_FLOAT", "tensorShape": {}}}}}, {"name": "FeatureExtractor/MobilenetV1/MobilenetV1/Conv2d_7_depthwise/weights_quant/FakeQuantWithMinMaxVars", "op": "Const", "attr": {"value": {"tensor": {"dtype": "DT_FLOAT", "tensorShape": {"dim": [{"size": "3"}, {"size": "3"}, {"size": "512"}, {"size": "1"}]}}}, "dtype": {"type": "DT_FLOAT"}}}, {"name": "FeatureExtractor/MobilenetV1/MobilenetV1/Conv2d_7_depthwise/act_quant/max", "op": "Const", "attr": {"dtype": {"type": "DT_FLOAT"}, "value": {"tensor": {"dtype": "DT_FLOAT", "tensorShape": {}}}}}, {"name": "FeatureExtractor/MobilenetV1/MobilenetV1/Conv2d_7_pointwise/weights_quant/FakeQuantWithMinMaxVars", "op": "Const", "attr": {"dtype": {"type": "DT_FLOAT"}, "value": {"tensor": {"dtype": "DT_FLOAT", "tensorShape": {"dim": [{"size": "1"}, {"size": "1"}, {"size": "512"}, {"size": "512"}]}}}}}, {"name": "BoxPredictor_2/BoxEncodingPredictor/weights_quant/FakeQuantWithMinMaxVars", "op": "Const", "attr": {"dtype": {"type": "DT_FLOAT"}, "value": {"tensor": {"dtype": "DT_FLOAT", "tensorShape": {"dim": [{"size": "1"}, {"size": "1"}, {"size": "512"}, {"size": "24"}]}}}}}, {"name": "FeatureExtractor/MobilenetV1/MobilenetV1/Conv2d_8_depthwise/weights_quant/FakeQuantWithMinMaxVars", "op": "Const", "attr": {"dtype": {"type": "DT_FLOAT"}, "value": {"tensor": {"dtype": "DT_FLOAT", "tensorShape": {"dim": [{"size": "3"}, {"size": "3"}, {"size": "512"}, {"size": "1"}]}}}}}, {"name": "BoxPredictor_2/BoxEncodingPredictor/act_quant/min", "op": "Const", "attr": {"value": {"tensor": {"dtype": "DT_FLOAT", "tensorShape": {}}}, "dtype": {"type": "DT_FLOAT"}}}, {"name": "FeatureExtractor/MobilenetV1/MobilenetV1/Conv2d_8_depthwise/act_quant/max", "op": "Const", "attr": {"value": {"tensor": {"dtype": "DT_FLOAT", "tensorShape": {}}}, "dtype": {"type": "DT_FLOAT"}}}, {"name": "BoxPredictor_2/BoxEncodingPredictor/act_quant/max", "op": "Const", "attr": {"dtype": {"type": "DT_FLOAT"}, "value": {"tensor": {"dtype": "DT_FLOAT", "tensorShape": {}}}}}, {"name": "FeatureExtractor/MobilenetV1/MobilenetV1/Conv2d_8_pointwise/weights_quant/FakeQuantWithMinMaxVars", "op": "Const", "attr": {"dtype": {"type": "DT_FLOAT"}, "value": {"tensor": {"dtype": "DT_FLOAT", "tensorShape": {"dim": [{"size": "1"}, {"size": "1"}, {"size": "512"}, {"size": "512"}]}}}}}, {"name": "FeatureExtractor/MobilenetV1/MobilenetV1/Conv2d_9_depthwise/weights_quant/FakeQuantWithMinMaxVars", "op": "Const", "attr": {"dtype": {"type": "DT_FLOAT"}, "value": {"tensor": {"dtype": "DT_FLOAT", "tensorShape": {"dim": [{"size": "3"}, {"size": "3"}, {"size": "512"}, {"size": "1"}]}}}}}, {"name": "BoxPredictor_2/ClassPredictor/weights_quant/FakeQuantWithMinMaxVars", "op": "Const", "attr": {"dtype": {"type": "DT_FLOAT"}, "value": {"tensor": {"dtype": "DT_FLOAT", "tensorShape": {"dim": [{"size": "1"}, {"size": "1"}, {"size": "512"}, {"size": "24"}]}}}}}, {"name": "FeatureExtractor/MobilenetV1/MobilenetV1/Conv2d_9_pointwise/weights_quant/FakeQuantWithMinMaxVars", "op": "Const", "attr": {"value": {"tensor": {"dtype": "DT_FLOAT", "tensorShape": {"dim": [{"size": "1"}, {"size": "1"}, {"size": "512"}, {"size": "512"}]}}}, "dtype": {"type": "DT_FLOAT"}}}, {"name": "BoxPredictor_2/ClassPredictor/act_quant/min", "op": "Const", "attr": {"dtype": {"type": "DT_FLOAT"}, "value": {"tensor": {"dtype": "DT_FLOAT", "tensorShape": {}}}}}, {"name": "BoxPredictor_2/ClassPredictor/act_quant/max", "op": "Const", "attr": {"dtype": {"type": "DT_FLOAT"}, "value": {"tensor": {"dtype": "DT_FLOAT", "tensorShape": {}}}}}, {"name": "FeatureExtractor/MobilenetV1/MobilenetV1/Conv2d_10_depthwise/weights_quant/FakeQuantWithMinMaxVars", "op": "Const", "attr": {"value": {"tensor": {"dtype": "DT_FLOAT", "tensorShape": {"dim": [{"size": "3"}, {"size": "3"}, {"size": "512"}, {"size": "1"}]}}}, "dtype": {"type": "DT_FLOAT"}}}, {"name": "FeatureExtractor/MobilenetV1/MobilenetV1/Conv2d_10_pointwise/weights_quant/FakeQuantWithMinMaxVars", "op": "Const", "attr": {"dtype": {"type": "DT_FLOAT"}, "value": {"tensor": {"dtype": "DT_FLOAT", "tensorShape": {"dim": [{"size": "1"}, {"size": "1"}, {"size": "512"}, {"size": "512"}]}}}}}, {"name": "BoxPredictor_3/BoxEncodingPredictor/weights_quant/FakeQuantWithMinMaxVars", "op": "Const", "attr": {"value": {"tensor": {"dtype": "DT_FLOAT", "tensorShape": {"dim": [{"size": "1"}, {"size": "1"}, {"size": "256"}, {"size": "24"}]}}}, "dtype": {"type": "DT_FLOAT"}}}, {"name": "FeatureExtractor/MobilenetV1/MobilenetV1/Conv2d_11_depthwise/weights_quant/FakeQuantWithMinMaxVars", "op": "Const", "attr": {"value": {"tensor": {"dtype": "DT_FLOAT", "tensorShape": {"dim": [{"size": "3"}, {"size": "3"}, {"size": "512"}, {"size": "1"}]}}}, "dtype": {"type": "DT_FLOAT"}}}, {"name": "ConstantFolding/Postprocessor/Decode/get_center_coordinates_and_sizes/truediv_recip", "op": "Const", "attr": {"dtype": {"type": "DT_FLOAT"}, "value": {"tensor": {"dtype": "DT_FLOAT", "tensorShape": {}}}}}, {"name": "ConstantFolding/Postprocessor/Decode/truediv_recip", "op": "Const", "attr": {"value": {"tensor": {"dtype": "DT_FLOAT", "tensorShape": {}}}, "dtype": {"type": "DT_FLOAT"}}}, {"name": "ConstantFolding/Postprocessor/Decode/truediv_2_recip", "op": "Const", "attr": {"dtype": {"type": "DT_FLOAT"}, "value": {"tensor": {"dtype": "DT_FLOAT", "tensorShape": {}}}}}, {"name": "Postprocessor/ExpandDims", "op": "Const", "attr": {"value": {"tensor": {"dtype": "DT_FLOAT", "tensorShape": {"dim": [{"size": "1"}, {"size": "1917"}, {"size": "4"}]}}}, "dtype": {"type": "DT_FLOAT"}}}, {"name": "Cast", "op": "Cast", "input": ["image_tensor"], "attr": {"DstT": {"type": "DT_FLOAT"}, "Truncate": {"b": false}, "SrcT": {"type": "DT_UINT8"}}}, {"name": "Preprocessor/map/while/Enter_1", "op": "Enter", "input": ["Preprocessor/map/TensorArrayUnstack/range/start"], "attr": {"T": {"type": "DT_INT32"}, "parallel_iterations": {"i": "32"}, "is_constant": {"b": false}, "frame_name": {"s": "UHJlcHJvY2Vzc29yL21hcC93aGlsZS93aGlsZV9jb250ZXh0"}}}, {"name": "Preprocessor/map/while/Enter", "op": "Enter", "input": ["Preprocessor/map/TensorArrayUnstack/range/start"], "attr": {"parallel_iterations": {"i": "32"}, "is_constant": {"b": false}, "T": {"type": "DT_INT32"}, "frame_name": {"s": "UHJlcHJvY2Vzc29yL21hcC93aGlsZS93aGlsZV9jb250ZXh0"}}}, {"name": "Preprocessor/mul", "op": "Mul", "input": ["Cast", "Preprocessor/mul/x"], "attr": {"T": {"type": "DT_FLOAT"}}}, {"name": "Preprocessor/map/while/Merge_1", "op": "Merge", "input": ["Preprocessor/map/while/Enter_1", "Preprocessor/map/while/NextIteration_1"], "attr": {"N": {"i": "2"}, "T": {"type": "DT_INT32"}}}, {"name": "Preprocessor/map/while/Merge", "op": "Merge", "input": ["Preprocessor/map/while/Enter", "Preprocessor/map/while/NextIteration"], "attr": {"N": {"i": "2"}, "T": {"type": "DT_INT32"}}}, {"name": "Preprocessor/sub", "op": "Sub", "input": ["Preprocessor/mul", "Preprocessor/sub/y"], "attr": {"T": {"type": "DT_FLOAT"}}}, {"name": "Preprocessor/map/Shape", "op": "Shape", "input": ["Preprocessor/sub"], "attr": {"out_type": {"type": "DT_INT32"}, "T": {"type": "DT_FLOAT"}}}, {"name": "Preprocessor/map/strided_slice", "op": "StridedSlice", "input": ["Preprocessor/map/Shape", "Preprocessor/map/strided_slice/stack", "Preprocessor/map/strided_slice/stack_1", "Preprocessor/map/strided_slice/stack_1"], "attr": {"Index": {"type": "DT_INT32"}, "begin_mask": {"i": "0"}, "shrink_axis_mask": {"i": "1"}, "new_axis_mask": {"i": "0"}, "T": {"type": "DT_INT32"}, "end_mask": {"i": "0"}, "ellipsis_mask": {"i": "0"}}}, {"name": "Preprocessor/map/TensorArray", "op": "TensorArrayV3", "input": ["Preprocessor/map/strided_slice"], "attr": {"element_shape": {"shape": {"unknownRank": true}}, "clear_after_read": {"b": true}, "identical_element_shapes": {"b": true}, "tensor_array_name": {"s": ""}, "dtype": {"type": "DT_FLOAT"}, "dynamic_size": {"b": false}}}, {"name": "Preprocessor/map/TensorArray_1", "op": "TensorArrayV3", "input": ["Preprocessor/map/strided_slice"], "attr": {"dtype": {"type": "DT_FLOAT"}, "element_shape": {"shape": {"unknownRank": true}}, "tensor_array_name": {"s": ""}, "dynamic_size": {"b": false}, "identical_element_shapes": {"b": true}, "clear_after_read": {"b": true}}}, {"name": "Preprocessor/map/while/Less/Enter", "op": "Enter", "input": ["Preprocessor/map/strided_slice"], "attr": {"parallel_iterations": {"i": "32"}, "T": {"type": "DT_INT32"}, "is_constant": {"b": true}, "frame_name": {"s": "UHJlcHJvY2Vzc29yL21hcC93aGlsZS93aGlsZV9jb250ZXh0"}}}, {"name": "Preprocessor/map/TensorArrayUnstack/range", "op": "Range", "input": ["Preprocessor/map/TensorArrayUnstack/range/start", "Preprocessor/map/strided_slice", "Preprocessor/map/TensorArrayUnstack/range/delta"], "attr": {"Tidx": {"type": "DT_INT32"}}}, {"name": "Preprocessor/map/while/TensorArrayReadV3/Enter", "op": "Enter", "input": ["Preprocessor/map/TensorArray"], "attr": {"is_constant": {"b": true}, "frame_name": {"s": "UHJlcHJvY2Vzc29yL21hcC93aGlsZS93aGlsZV9jb250ZXh0"}, "T": {"type": "DT_RESOURCE"}, "parallel_iterations": {"i": "32"}}}, {"name": "Preprocessor/map/while/TensorArrayWrite/TensorArrayWriteV3/Enter", "op": "Enter", "input": ["Preprocessor/map/TensorArray_1"], "attr": {"parallel_iterations": {"i": "32"}, "frame_name": {"s": "UHJlcHJvY2Vzc29yL21hcC93aGlsZS93aGlsZV9jb250ZXh0"}, "T": {"type": "DT_RESOURCE"}, "is_constant": {"b": true}}}, {"name": "Preprocessor/map/while/Enter_2", "op": "Enter", "input": ["Preprocessor/map/TensorArray_1:1"], "attr": {"T": {"type": "DT_FLOAT"}, "frame_name": {"s": "UHJlcHJvY2Vzc29yL21hcC93aGlsZS93aGlsZV9jb250ZXh0"}, "is_constant": {"b": false}, "parallel_iterations": {"i": "32"}}}, {"name": "Preprocessor/map/while/Less_1", "op": "Less", "input": ["Preprocessor/map/while/Merge_1", "Preprocessor/map/while/Less/Enter"], "attr": {"T": {"type": "DT_INT32"}}}, {"name": "Preprocessor/map/while/Less", "op": "Less", "input": ["Preprocessor/map/while/Merge", "Preprocessor/map/while/Less/Enter"], "attr": {"T": {"type": "DT_INT32"}}}, {"name": "Preprocessor/map/TensorArrayUnstack/TensorArrayScatter/TensorArrayScatterV3", "op": "TensorArrayScatterV3", "input": ["Preprocessor/map/TensorArray", "Preprocessor/map/TensorArrayUnstack/range", "Preprocessor/sub", "Preprocessor/map/TensorArray:1"], "attr": {"T": {"type": "DT_FLOAT"}}}, {"name": "Preprocessor/map/while/Merge_2", "op": "Merge", "input": ["Preprocessor/map/while/Enter_2", "Preprocessor/map/while/NextIteration_2"], "attr": {"N": {"i": "2"}, "T": {"type": "DT_FLOAT"}}}, {"name": "Preprocessor/map/while/LogicalAnd", "op": "LogicalAnd", "input": ["Preprocessor/map/while/Less", "Preprocessor/map/while/Less_1"]}, {"name": "Preprocessor/map/while/TensorArrayReadV3/Enter_1", "op": "Enter", "input": ["Preprocessor/map/TensorArrayUnstack/TensorArrayScatter/TensorArrayScatterV3"], "attr": {"parallel_iterations": {"i": "32"}, "frame_name": {"s": "UHJlcHJvY2Vzc29yL21hcC93aGlsZS93aGlsZV9jb250ZXh0"}, "is_constant": {"b": true}, "T": {"type": "DT_FLOAT"}}}, {"name": "Preprocessor/map/while/LoopCond", "op": "LoopCond", "input": ["Preprocessor/map/while/LogicalAnd"]}, {"name": "Preprocessor/map/while/Switch_1", "op": "Switch", "input": ["Preprocessor/map/while/Merge_1", "Preprocessor/map/while/LoopCond"], "attr": {"T": {"type": "DT_INT32"}}}, {"name": "Preprocessor/map/while/Switch_2", "op": "Switch", "input": ["Preprocessor/map/while/Merge_2", "Preprocessor/map/while/LoopCond"], "attr": {"T": {"type": "DT_FLOAT"}}}, {"name": "Preprocessor/map/while/Switch", "op": "Switch", "input": ["Preprocessor/map/while/Merge", "Preprocessor/map/while/LoopCond"], "attr": {"T": {"type": "DT_INT32"}}}, {"name": "Preprocessor/map/while/TensorArrayReadV3", "op": "TensorArrayReadV3", "input": ["Preprocessor/map/while/TensorArrayReadV3/Enter", "Preprocessor/map/while/Switch_1:1", "Preprocessor/map/while/TensorArrayReadV3/Enter_1"], "attr": {"dtype": {"type": "DT_FLOAT"}}}, {"name": "Preprocessor/map/while/Exit_2", "op": "Exit", "input": ["Preprocessor/map/while/Switch_2"], "attr": {"T": {"type": "DT_FLOAT"}}}, {"name": "Preprocessor/map/while/Identity", "op": "Identity", "input": ["Preprocessor/map/while/Switch:1"], "attr": {"T": {"type": "DT_INT32"}}}, {"name": "Preprocessor/map/TensorArrayStack/TensorArraySizeV3", "op": "TensorArraySizeV3", "input": ["Preprocessor/map/TensorArray_1", "Preprocessor/map/while/Exit_2"]}, {"name": "Preprocessor/map/while/add/y", "op": "Const", "input": ["^Preprocessor/map/while/Identity"], "attr": {"dtype": {"type": "DT_INT32"}, "value": {"tensor": {"dtype": "DT_INT32", "tensorShape": {}}}}}, {"name": "Preprocessor/map/while/ResizeImage/stack", "op": "Const", "input": ["^Preprocessor/map/while/Identity"], "attr": {"value": {"tensor": {"dtype": "DT_INT32", "tensorShape": {"dim": [{"size": "2"}]}}}, "dtype": {"type": "DT_INT32"}}}, {"name": "Preprocessor/map/while/ResizeImage/resize/ExpandDims/dim", "op": "Const", "input": ["^Preprocessor/map/while/Identity"], "attr": {"dtype": {"type": "DT_INT32"}, "value": {"tensor": {"dtype": "DT_INT32", "tensorShape": {}}}}}, {"name": "Preprocessor/map/TensorArrayStack/range", "op": "Range", "input": ["Preprocessor/map/TensorArrayUnstack/range/start", "Preprocessor/map/TensorArrayStack/TensorArraySizeV3", "Preprocessor/map/TensorArrayUnstack/range/delta"], "attr": {"Tidx": {"type": "DT_INT32"}}}, {"name": "Preprocessor/map/while/add", "op": "AddV2", "input": ["Preprocessor/map/while/Identity", "Preprocessor/map/while/add/y"], "attr": {"T": {"type": "DT_INT32"}}}, {"name": "Preprocessor/map/while/add_1", "op": "AddV2", "input": ["Preprocessor/map/while/Switch_1:1", "Preprocessor/map/while/add/y"], "attr": {"T": {"type": "DT_INT32"}}}, {"name": "Preprocessor/map/while/ResizeImage/resize/ExpandDims", "op": "ExpandDims", "input": ["Preprocessor/map/while/TensorArrayReadV3", "Preprocessor/map/while/ResizeImage/resize/ExpandDims/dim"], "attr": {"Tdim": {"type": "DT_INT32"}, "T": {"type": "DT_FLOAT"}}}, {"name": "Preprocessor/map/TensorArrayStack/TensorArrayGatherV3", "op": "TensorArrayGatherV3", "input": ["Preprocessor/map/TensorArray_1", "Preprocessor/map/TensorArrayStack/range", "Preprocessor/map/while/Exit_2"], "attr": {"dtype": {"type": "DT_FLOAT"}, "element_shape": {"shape": {"dim": [{"size": "300"}, {"size": "300"}, {"size": "3"}]}}}}, {"name": "Preprocessor/map/while/NextIteration", "op": "NextIteration", "input": ["Preprocessor/map/while/add"], "attr": {"T": {"type": "DT_INT32"}}}, {"name": "Preprocessor/map/while/NextIteration_1", "op": "NextIteration", "input": ["Preprocessor/map/while/add_1"], "attr": {"T": {"type": "DT_INT32"}}}, {"name": "Preprocessor/map/while/ResizeImage/resize/ResizeBilinear", "op": "ResizeBilinear", "input": ["Preprocessor/map/while/ResizeImage/resize/ExpandDims", "Preprocessor/map/while/ResizeImage/stack"], "attr": {"align_corners": {"b": false}, "T": {"type": "DT_FLOAT"}, "half_pixel_centers": {"b": false}}}, {"name": "FeatureExtractor/MobilenetV1/MobilenetV1/Conv2d_0/Conv2D_Fold", "op": "Conv2D", "input": ["Preprocessor/map/TensorArrayStack/TensorArrayGatherV3", "FeatureExtractor/MobilenetV1/MobilenetV1/Conv2d_0/weights_quant/FakeQuantWithMinMaxVars"], "device": "/device:CPU:0", "attr": {"padding": {"s": "U0FNRQ=="}, "explicit_paddings": {"list": {}}, "T": {"type": "DT_FLOAT"}, "strides": {"list": {"i": ["1", "2", "2", "1"]}}, "data_format": {"s": "TkhXQw=="}, "dilations": {"list": {"i": ["1", "1", "1", "1"]}}, "use_cudnn_on_gpu": {"b": true}}}, {"name": "Preprocessor/map/while/ResizeImage/resize/Squeeze", "op": "Squeeze", "input": ["Preprocessor/map/while/ResizeImage/resize/ResizeBilinear"], "attr": {"T": {"type": "DT_FLOAT"}, "squeeze_dims": {"list": {"i": ["0"]}}}}, {"name": "FeatureExtractor/MobilenetV1/MobilenetV1/Conv2d_0/add_fold", "op": "Add", "input": ["FeatureExtractor/MobilenetV1/MobilenetV1/Conv2d_0/BatchNorm_Fold/bias", "FeatureExtractor/MobilenetV1/MobilenetV1/Conv2d_0/Conv2D_Fold"], "attr": {"T": {"type": "DT_FLOAT"}}}, {"name": "Preprocessor/map/while/TensorArrayWrite/TensorArrayWriteV3", "op": "TensorArrayWriteV3", "input": ["Preprocessor/map/while/TensorArrayWrite/TensorArrayWriteV3/Enter", "Preprocessor/map/while/Switch_1:1", "Preprocessor/map/while/ResizeImage/resize/Squeeze", "Preprocessor/map/while/Switch_2:1"], "attr": {"T": {"type": "DT_FLOAT"}}}, {"name": "FeatureExtractor/MobilenetV1/MobilenetV1/Conv2d_0/Relu6", "op": "Relu6", "input": ["FeatureExtractor/MobilenetV1/MobilenetV1/Conv2d_0/add_fold"], "attr": {"T": {"type": "DT_FLOAT"}}}, {"name": "Preprocessor/map/while/NextIteration_2", "op": "NextIteration", "input": ["Preprocessor/map/while/TensorArrayWrite/TensorArrayWriteV3"], "attr": {"T": {"type": "DT_FLOAT"}}}, {"name": "FeatureExtractor/MobilenetV1/MobilenetV1/Conv2d_0/act_quant/FakeQuantWithMinMaxVars", "op": "FakeQuantWithMinMaxVars", "input": ["FeatureExtractor/MobilenetV1/MobilenetV1/Conv2d_0/Relu6", "FeatureExtractor/MobilenetV1/MobilenetV1/Conv2d_11_pointwise/act_quant/min", "FeatureExtractor/MobilenetV1/MobilenetV1/Conv2d_0/act_quant/max"], "attr": {"num_bits": {"i": "8"}, "narrow_range": {"b": false}}}, {"name": "FeatureExtractor/MobilenetV1/MobilenetV1/Conv2d_1_depthwise/depthwise_Fold", "op": "DepthwiseConv2dNative", "input": ["FeatureExtractor/MobilenetV1/MobilenetV1/Conv2d_0/act_quant/FakeQuantWithMinMaxVars", "FeatureExtractor/MobilenetV1/MobilenetV1/Conv2d_1_depthwise/weights_quant/FakeQuantWithMinMaxVars"], "attr": {"padding": {"s": "U0FNRQ=="}, "dilations": {"list": {"i": ["1", "1", "1", "1"]}}, "strides": {"list": {"i": ["1", "1", "1", "1"]}}, "data_format": {"s": "TkhXQw=="}, "T": {"type": "DT_FLOAT"}}}, {"name": "FeatureExtractor/MobilenetV1/MobilenetV1/Conv2d_1_depthwise/add_fold", "op": "Add", "input": ["FeatureExtractor/MobilenetV1/MobilenetV1/Conv2d_1_depthwise/BatchNorm_Fold/bias", "FeatureExtractor/MobilenetV1/MobilenetV1/Conv2d_1_depthwise/depthwise_Fold"], "attr": {"T": {"type": "DT_FLOAT"}}}, {"name": "FeatureExtractor/MobilenetV1/MobilenetV1/Conv2d_1_depthwise/Relu6", "op": "Relu6", "input": ["FeatureExtractor/MobilenetV1/MobilenetV1/Conv2d_1_depthwise/add_fold"], "attr": {"T": {"type": "DT_FLOAT"}}}, {"name": "FeatureExtractor/MobilenetV1/MobilenetV1/Conv2d_1_depthwise/act_quant/FakeQuantWithMinMaxVars", "op": "FakeQuantWithMinMaxVars", "input": ["FeatureExtractor/MobilenetV1/MobilenetV1/Conv2d_1_depthwise/Relu6", "FeatureExtractor/MobilenetV1/MobilenetV1/Conv2d_11_pointwise/act_quant/min", "FeatureExtractor/MobilenetV1/MobilenetV1/Conv2d_1_depthwise/act_quant/max"], "attr": {"narrow_range": {"b": false}, "num_bits": {"i": "8"}}}, {"name": "FeatureExtractor/MobilenetV1/MobilenetV1/Conv2d_1_pointwise/Conv2D_Fold", "op": "Conv2D", "input": ["FeatureExtractor/MobilenetV1/MobilenetV1/Conv2d_1_depthwise/act_quant/FakeQuantWithMinMaxVars", "FeatureExtractor/MobilenetV1/MobilenetV1/Conv2d_1_pointwise/weights_quant/FakeQuantWithMinMaxVars"], "device": "/device:CPU:0", "attr": {"padding": {"s": "U0FNRQ=="}, "use_cudnn_on_gpu": {"b": true}, "T": {"type": "DT_FLOAT"}, "data_format": {"s": "TkhXQw=="}, "explicit_paddings": {"list": {}}, "dilations": {"list": {"i": ["1", "1", "1", "1"]}}, "strides": {"list": {"i": ["1", "1", "1", "1"]}}}}, {"name": "FeatureExtractor/MobilenetV1/MobilenetV1/Conv2d_1_pointwise/add_fold", "op": "Add", "input": ["FeatureExtractor/MobilenetV1/MobilenetV1/Conv2d_1_pointwise/BatchNorm_Fold/bias", "FeatureExtractor/MobilenetV1/MobilenetV1/Conv2d_1_pointwise/Conv2D_Fold"], "attr": {"T": {"type": "DT_FLOAT"}}}, {"name": "FeatureExtractor/MobilenetV1/MobilenetV1/Conv2d_1_pointwise/Relu6", "op": "Relu6", "input": ["FeatureExtractor/MobilenetV1/MobilenetV1/Conv2d_1_pointwise/add_fold"], "attr": {"T": {"type": "DT_FLOAT"}}}, {"name": "FeatureExtractor/MobilenetV1/MobilenetV1/Conv2d_1_pointwise/act_quant/FakeQuantWithMinMaxVars", "op": "FakeQuantWithMinMaxVars", "input": ["FeatureExtractor/MobilenetV1/MobilenetV1/Conv2d_1_pointwise/Relu6", "FeatureExtractor/MobilenetV1/MobilenetV1/Conv2d_11_pointwise/act_quant/min", "FeatureExtractor/MobilenetV1/MobilenetV1/Conv2d_1_pointwise/act_quant/max"], "attr": {"num_bits": {"i": "8"}, "narrow_range": {"b": false}}}, {"name": "FeatureExtractor/MobilenetV1/MobilenetV1/Conv2d_2_depthwise/depthwise_Fold", "op": "DepthwiseConv2dNative", "input": ["FeatureExtractor/MobilenetV1/MobilenetV1/Conv2d_1_pointwise/act_quant/FakeQuantWithMinMaxVars", "FeatureExtractor/MobilenetV1/MobilenetV1/Conv2d_2_depthwise/weights_quant/FakeQuantWithMinMaxVars"], "attr": {"data_format": {"s": "TkhXQw=="}, "strides": {"list": {"i": ["1", "2", "2", "1"]}}, "padding": {"s": "U0FNRQ=="}, "T": {"type": "DT_FLOAT"}, "dilations": {"list": {"i": ["1", "1", "1", "1"]}}}}, {"name": "FeatureExtractor/MobilenetV1/MobilenetV1/Conv2d_2_depthwise/add_fold", "op": "Add", "input": ["FeatureExtractor/MobilenetV1/MobilenetV1/Conv2d_2_depthwise/BatchNorm_Fold/bias", "FeatureExtractor/MobilenetV1/MobilenetV1/Conv2d_2_depthwise/depthwise_Fold"], "attr": {"T": {"type": "DT_FLOAT"}}}, {"name": "FeatureExtractor/MobilenetV1/MobilenetV1/Conv2d_2_depthwise/Relu6", "op": "Relu6", "input": ["FeatureExtractor/MobilenetV1/MobilenetV1/Conv2d_2_depthwise/add_fold"], "attr": {"T": {"type": "DT_FLOAT"}}}, {"name": "FeatureExtractor/MobilenetV1/MobilenetV1/Conv2d_2_depthwise/act_quant/FakeQuantWithMinMaxVars", "op": "FakeQuantWithMinMaxVars", "input": ["FeatureExtractor/MobilenetV1/MobilenetV1/Conv2d_2_depthwise/Relu6", "FeatureExtractor/MobilenetV1/MobilenetV1/Conv2d_11_pointwise/act_quant/min", "FeatureExtractor/MobilenetV1/MobilenetV1/Conv2d_2_depthwise/act_quant/max"], "attr": {"narrow_range": {"b": false}, "num_bits": {"i": "8"}}}, {"name": "FeatureExtractor/MobilenetV1/MobilenetV1/Conv2d_2_pointwise/Conv2D_Fold", "op": "Conv2D", "input": ["FeatureExtractor/MobilenetV1/MobilenetV1/Conv2d_2_depthwise/act_quant/FakeQuantWithMinMaxVars", "FeatureExtractor/MobilenetV1/MobilenetV1/Conv2d_2_pointwise/weights_quant/FakeQuantWithMinMaxVars"], "device": "/device:CPU:0", "attr": {"strides": {"list": {"i": ["1", "1", "1", "1"]}}, "padding": {"s": "U0FNRQ=="}, "use_cudnn_on_gpu": {"b": true}, "explicit_paddings": {"list": {}}, "dilations": {"list": {"i": ["1", "1", "1", "1"]}}, "T": {"type": "DT_FLOAT"}, "data_format": {"s": "TkhXQw=="}}}, {"name": "FeatureExtractor/MobilenetV1/MobilenetV1/Conv2d_2_pointwise/add_fold", "op": "Add", "input": ["FeatureExtractor/MobilenetV1/MobilenetV1/Conv2d_2_pointwise/BatchNorm_Fold/bias", "FeatureExtractor/MobilenetV1/MobilenetV1/Conv2d_2_pointwise/Conv2D_Fold"], "attr": {"T": {"type": "DT_FLOAT"}}}, {"name": "FeatureExtractor/MobilenetV1/MobilenetV1/Conv2d_2_pointwise/Relu6", "op": "Relu6", "input": ["FeatureExtractor/MobilenetV1/MobilenetV1/Conv2d_2_pointwise/add_fold"], "attr": {"T": {"type": "DT_FLOAT"}}}, {"name": "FeatureExtractor/MobilenetV1/MobilenetV1/Conv2d_2_pointwise/act_quant/FakeQuantWithMinMaxVars", "op": "FakeQuantWithMinMaxVars", "input": ["FeatureExtractor/MobilenetV1/MobilenetV1/Conv2d_2_pointwise/Relu6", "FeatureExtractor/MobilenetV1/MobilenetV1/Conv2d_11_pointwise/act_quant/min", "FeatureExtractor/MobilenetV1/MobilenetV1/Conv2d_2_pointwise/act_quant/max"], "attr": {"narrow_range": {"b": false}, "num_bits": {"i": "8"}}}, {"name": "FeatureExtractor/MobilenetV1/MobilenetV1/Conv2d_3_depthwise/depthwise_Fold", "op": "DepthwiseConv2dNative", "input": ["FeatureExtractor/MobilenetV1/MobilenetV1/Conv2d_2_pointwise/act_quant/FakeQuantWithMinMaxVars", "FeatureExtractor/MobilenetV1/MobilenetV1/Conv2d_3_depthwise/weights_quant/FakeQuantWithMinMaxVars"], "attr": {"padding": {"s": "U0FNRQ=="}, "strides": {"list": {"i": ["1", "1", "1", "1"]}}, "dilations": {"list": {"i": ["1", "1", "1", "1"]}}, "T": {"type": "DT_FLOAT"}, "data_format": {"s": "TkhXQw=="}}}, {"name": "FeatureExtractor/MobilenetV1/MobilenetV1/Conv2d_3_depthwise/add_fold", "op": "Add", "input": ["FeatureExtractor/MobilenetV1/MobilenetV1/Conv2d_3_depthwise/BatchNorm_Fold/bias", "FeatureExtractor/MobilenetV1/MobilenetV1/Conv2d_3_depthwise/depthwise_Fold"], "attr": {"T": {"type": "DT_FLOAT"}}}, {"name": "FeatureExtractor/MobilenetV1/MobilenetV1/Conv2d_3_depthwise/Relu6", "op": "Relu6", "input": ["FeatureExtractor/MobilenetV1/MobilenetV1/Conv2d_3_depthwise/add_fold"], "attr": {"T": {"type": "DT_FLOAT"}}}, {"name": "FeatureExtractor/MobilenetV1/MobilenetV1/Conv2d_3_depthwise/act_quant/FakeQuantWithMinMaxVars", "op": "FakeQuantWithMinMaxVars", "input": ["FeatureExtractor/MobilenetV1/MobilenetV1/Conv2d_3_depthwise/Relu6", "FeatureExtractor/MobilenetV1/MobilenetV1/Conv2d_11_pointwise/act_quant/min", "FeatureExtractor/MobilenetV1/MobilenetV1/Conv2d_3_depthwise/act_quant/max"], "attr": {"narrow_range": {"b": false}, "num_bits": {"i": "8"}}}, {"name": "FeatureExtractor/MobilenetV1/MobilenetV1/Conv2d_3_pointwise/Conv2D_Fold", "op": "Conv2D", "input": ["FeatureExtractor/MobilenetV1/MobilenetV1/Conv2d_3_depthwise/act_quant/FakeQuantWithMinMaxVars", "FeatureExtractor/MobilenetV1/MobilenetV1/Conv2d_3_pointwise/weights_quant/FakeQuantWithMinMaxVars"], "device": "/device:CPU:0", "attr": {"dilations": {"list": {"i": ["1", "1", "1", "1"]}}, "strides": {"list": {"i": ["1", "1", "1", "1"]}}, "use_cudnn_on_gpu": {"b": true}, "explicit_paddings": {"list": {}}, "data_format": {"s": "TkhXQw=="}, "T": {"type": "DT_FLOAT"}, "padding": {"s": "U0FNRQ=="}}}, {"name": "FeatureExtractor/MobilenetV1/MobilenetV1/Conv2d_3_pointwise/add_fold", "op": "Add", "input": ["FeatureExtractor/MobilenetV1/MobilenetV1/Conv2d_3_pointwise/BatchNorm_Fold/bias", "FeatureExtractor/MobilenetV1/MobilenetV1/Conv2d_3_pointwise/Conv2D_Fold"], "attr": {"T": {"type": "DT_FLOAT"}}}, {"name": "FeatureExtractor/MobilenetV1/MobilenetV1/Conv2d_3_pointwise/Relu6", "op": "Relu6", "input": ["FeatureExtractor/MobilenetV1/MobilenetV1/Conv2d_3_pointwise/add_fold"], "attr": {"T": {"type": "DT_FLOAT"}}}, {"name": "FeatureExtractor/MobilenetV1/MobilenetV1/Conv2d_3_pointwise/act_quant/FakeQuantWithMinMaxVars", "op": "FakeQuantWithMinMaxVars", "input": ["FeatureExtractor/MobilenetV1/MobilenetV1/Conv2d_3_pointwise/Relu6", "FeatureExtractor/MobilenetV1/MobilenetV1/Conv2d_11_pointwise/act_quant/min", "FeatureExtractor/MobilenetV1/MobilenetV1/Conv2d_3_pointwise/act_quant/max"], "attr": {"narrow_range": {"b": false}, "num_bits": {"i": "8"}}}, {"name": "FeatureExtractor/MobilenetV1/MobilenetV1/Conv2d_4_depthwise/depthwise_Fold", "op": "DepthwiseConv2dNative", "input": ["FeatureExtractor/MobilenetV1/MobilenetV1/Conv2d_3_pointwise/act_quant/FakeQuantWithMinMaxVars", "FeatureExtractor/MobilenetV1/MobilenetV1/Conv2d_4_depthwise/weights_quant/FakeQuantWithMinMaxVars"], "attr": {"data_format": {"s": "TkhXQw=="}, "T": {"type": "DT_FLOAT"}, "padding": {"s": "U0FNRQ=="}, "dilations": {"list": {"i": ["1", "1", "1", "1"]}}, "strides": {"list": {"i": ["1", "2", "2", "1"]}}}}, {"name": "FeatureExtractor/MobilenetV1/MobilenetV1/Conv2d_4_depthwise/add_fold", "op": "Add", "input": ["FeatureExtractor/MobilenetV1/MobilenetV1/Conv2d_4_depthwise/BatchNorm_Fold/bias", "FeatureExtractor/MobilenetV1/MobilenetV1/Conv2d_4_depthwise/depthwise_Fold"], "attr": {"T": {"type": "DT_FLOAT"}}}, {"name": "FeatureExtractor/MobilenetV1/MobilenetV1/Conv2d_4_depthwise/Relu6", "op": "Relu6", "input": ["FeatureExtractor/MobilenetV1/MobilenetV1/Conv2d_4_depthwise/add_fold"], "attr": {"T": {"type": "DT_FLOAT"}}}, {"name": "FeatureExtractor/MobilenetV1/MobilenetV1/Conv2d_4_depthwise/act_quant/FakeQuantWithMinMaxVars", "op": "FakeQuantWithMinMaxVars", "input": ["FeatureExtractor/MobilenetV1/MobilenetV1/Conv2d_4_depthwise/Relu6", "FeatureExtractor/MobilenetV1/MobilenetV1/Conv2d_11_pointwise/act_quant/min", "FeatureExtractor/MobilenetV1/MobilenetV1/Conv2d_4_depthwise/act_quant/max"], "attr": {"num_bits": {"i": "8"}, "narrow_range": {"b": false}}}, {"name": "FeatureExtractor/MobilenetV1/MobilenetV1/Conv2d_4_pointwise/Conv2D_Fold", "op": "Conv2D", "input": ["FeatureExtractor/MobilenetV1/MobilenetV1/Conv2d_4_depthwise/act_quant/FakeQuantWithMinMaxVars", "FeatureExtractor/MobilenetV1/MobilenetV1/Conv2d_4_pointwise/weights_quant/FakeQuantWithMinMaxVars"], "device": "/device:CPU:0", "attr": {"use_cudnn_on_gpu": {"b": true}, "T": {"type": "DT_FLOAT"}, "explicit_paddings": {"list": {}}, "data_format": {"s": "TkhXQw=="}, "dilations": {"list": {"i": ["1", "1", "1", "1"]}}, "padding": {"s": "U0FNRQ=="}, "strides": {"list": {"i": ["1", "1", "1", "1"]}}}}, {"name": "FeatureExtractor/MobilenetV1/MobilenetV1/Conv2d_4_pointwise/add_fold", "op": "Add", "input": ["FeatureExtractor/MobilenetV1/MobilenetV1/Conv2d_4_pointwise/BatchNorm_Fold/bias", "FeatureExtractor/MobilenetV1/MobilenetV1/Conv2d_4_pointwise/Conv2D_Fold"], "attr": {"T": {"type": "DT_FLOAT"}}}, {"name": "FeatureExtractor/MobilenetV1/MobilenetV1/Conv2d_4_pointwise/Relu6", "op": "Relu6", "input": ["FeatureExtractor/MobilenetV1/MobilenetV1/Conv2d_4_pointwise/add_fold"], "attr": {"T": {"type": "DT_FLOAT"}}}, {"name": "FeatureExtractor/MobilenetV1/MobilenetV1/Conv2d_4_pointwise/act_quant/FakeQuantWithMinMaxVars", "op": "FakeQuantWithMinMaxVars", "input": ["FeatureExtractor/MobilenetV1/MobilenetV1/Conv2d_4_pointwise/Relu6", "FeatureExtractor/MobilenetV1/MobilenetV1/Conv2d_11_pointwise/act_quant/min", "FeatureExtractor/MobilenetV1/MobilenetV1/Conv2d_4_pointwise/act_quant/max"], "attr": {"narrow_range": {"b": false}, "num_bits": {"i": "8"}}}, {"name": "FeatureExtractor/MobilenetV1/MobilenetV1/Conv2d_5_depthwise/depthwise_Fold", "op": "DepthwiseConv2dNative", "input": ["FeatureExtractor/MobilenetV1/MobilenetV1/Conv2d_4_pointwise/act_quant/FakeQuantWithMinMaxVars", "FeatureExtractor/MobilenetV1/MobilenetV1/Conv2d_5_depthwise/weights_quant/FakeQuantWithMinMaxVars"], "attr": {"data_format": {"s": "TkhXQw=="}, "padding": {"s": "U0FNRQ=="}, "dilations": {"list": {"i": ["1", "1", "1", "1"]}}, "strides": {"list": {"i": ["1", "1", "1", "1"]}}, "T": {"type": "DT_FLOAT"}}}, {"name": "FeatureExtractor/MobilenetV1/MobilenetV1/Conv2d_5_depthwise/add_fold", "op": "Add", "input": ["FeatureExtractor/MobilenetV1/MobilenetV1/Conv2d_5_depthwise/BatchNorm_Fold/bias", "FeatureExtractor/MobilenetV1/MobilenetV1/Conv2d_5_depthwise/depthwise_Fold"], "attr": {"T": {"type": "DT_FLOAT"}}}, {"name": "FeatureExtractor/MobilenetV1/MobilenetV1/Conv2d_5_depthwise/Relu6", "op": "Relu6", "input": ["FeatureExtractor/MobilenetV1/MobilenetV1/Conv2d_5_depthwise/add_fold"], "attr": {"T": {"type": "DT_FLOAT"}}}, {"name": "FeatureExtractor/MobilenetV1/MobilenetV1/Conv2d_5_depthwise/act_quant/FakeQuantWithMinMaxVars", "op": "FakeQuantWithMinMaxVars", "input": ["FeatureExtractor/MobilenetV1/MobilenetV1/Conv2d_5_depthwise/Relu6", "FeatureExtractor/MobilenetV1/MobilenetV1/Conv2d_11_pointwise/act_quant/min", "FeatureExtractor/MobilenetV1/MobilenetV1/Conv2d_5_depthwise/act_quant/max"], "attr": {"narrow_range": {"b": false}, "num_bits": {"i": "8"}}}, {"name": "FeatureExtractor/MobilenetV1/MobilenetV1/Conv2d_5_pointwise/Conv2D_Fold", "op": "Conv2D", "input": ["FeatureExtractor/MobilenetV1/MobilenetV1/Conv2d_5_depthwise/act_quant/FakeQuantWithMinMaxVars", "FeatureExtractor/MobilenetV1/MobilenetV1/Conv2d_5_pointwise/weights_quant/FakeQuantWithMinMaxVars"], "device": "/device:CPU:0", "attr": {"data_format": {"s": "TkhXQw=="}, "use_cudnn_on_gpu": {"b": true}, "dilations": {"list": {"i": ["1", "1", "1", "1"]}}, "T": {"type": "DT_FLOAT"}, "strides": {"list": {"i": ["1", "1", "1", "1"]}}, "padding": {"s": "U0FNRQ=="}, "explicit_paddings": {"list": {}}}}, {"name": "FeatureExtractor/MobilenetV1/MobilenetV1/Conv2d_5_pointwise/add_fold", "op": "Add", "input": ["FeatureExtractor/MobilenetV1/MobilenetV1/Conv2d_5_pointwise/BatchNorm_Fold/bias", "FeatureExtractor/MobilenetV1/MobilenetV1/Conv2d_5_pointwise/Conv2D_Fold"], "attr": {"T": {"type": "DT_FLOAT"}}}, {"name": "FeatureExtractor/MobilenetV1/MobilenetV1/Conv2d_5_pointwise/Relu6", "op": "Relu6", "input": ["FeatureExtractor/MobilenetV1/MobilenetV1/Conv2d_5_pointwise/add_fold"], "attr": {"T": {"type": "DT_FLOAT"}}}, {"name": "FeatureExtractor/MobilenetV1/MobilenetV1/Conv2d_5_pointwise/act_quant/FakeQuantWithMinMaxVars", "op": "FakeQuantWithMinMaxVars", "input": ["FeatureExtractor/MobilenetV1/MobilenetV1/Conv2d_5_pointwise/Relu6", "FeatureExtractor/MobilenetV1/MobilenetV1/Conv2d_11_pointwise/act_quant/min", "FeatureExtractor/MobilenetV1/MobilenetV1/Conv2d_5_pointwise/act_quant/max"], "attr": {"narrow_range": {"b": false}, "num_bits": {"i": "8"}}}, {"name": "FeatureExtractor/MobilenetV1/MobilenetV1/Conv2d_6_depthwise/depthwise_Fold", "op": "DepthwiseConv2dNative", "input": ["FeatureExtractor/MobilenetV1/MobilenetV1/Conv2d_5_pointwise/act_quant/FakeQuantWithMinMaxVars", "FeatureExtractor/MobilenetV1/MobilenetV1/Conv2d_6_depthwise/weights_quant/FakeQuantWithMinMaxVars"], "attr": {"strides": {"list": {"i": ["1", "2", "2", "1"]}}, "data_format": {"s": "TkhXQw=="}, "dilations": {"list": {"i": ["1", "1", "1", "1"]}}, "padding": {"s": "U0FNRQ=="}, "T": {"type": "DT_FLOAT"}}}, {"name": "FeatureExtractor/MobilenetV1/MobilenetV1/Conv2d_6_depthwise/add_fold", "op": "Add", "input": ["FeatureExtractor/MobilenetV1/MobilenetV1/Conv2d_6_depthwise/BatchNorm_Fold/bias", "FeatureExtractor/MobilenetV1/MobilenetV1/Conv2d_6_depthwise/depthwise_Fold"], "attr": {"T": {"type": "DT_FLOAT"}}}, {"name": "FeatureExtractor/MobilenetV1/MobilenetV1/Conv2d_6_depthwise/Relu6", "op": "Relu6", "input": ["FeatureExtractor/MobilenetV1/MobilenetV1/Conv2d_6_depthwise/add_fold"], "attr": {"T": {"type": "DT_FLOAT"}}}, {"name": "FeatureExtractor/MobilenetV1/MobilenetV1/Conv2d_6_depthwise/act_quant/FakeQuantWithMinMaxVars", "op": "FakeQuantWithMinMaxVars", "input": ["FeatureExtractor/MobilenetV1/MobilenetV1/Conv2d_6_depthwise/Relu6", "FeatureExtractor/MobilenetV1/MobilenetV1/Conv2d_11_pointwise/act_quant/min", "FeatureExtractor/MobilenetV1/MobilenetV1/Conv2d_6_depthwise/act_quant/max"], "attr": {"narrow_range": {"b": false}, "num_bits": {"i": "8"}}}, {"name": "FeatureExtractor/MobilenetV1/MobilenetV1/Conv2d_6_pointwise/Conv2D_Fold", "op": "Conv2D", "input": ["FeatureExtractor/MobilenetV1/MobilenetV1/Conv2d_6_depthwise/act_quant/FakeQuantWithMinMaxVars", "FeatureExtractor/MobilenetV1/MobilenetV1/Conv2d_6_pointwise/weights_quant/FakeQuantWithMinMaxVars"], "device": "/device:CPU:0", "attr": {"explicit_paddings": {"list": {}}, "dilations": {"list": {"i": ["1", "1", "1", "1"]}}, "T": {"type": "DT_FLOAT"}, "strides": {"list": {"i": ["1", "1", "1", "1"]}}, "data_format": {"s": "TkhXQw=="}, "padding": {"s": "U0FNRQ=="}, "use_cudnn_on_gpu": {"b": true}}}, {"name": "FeatureExtractor/MobilenetV1/MobilenetV1/Conv2d_6_pointwise/add_fold", "op": "Add", "input": ["FeatureExtractor/MobilenetV1/MobilenetV1/Conv2d_6_pointwise/BatchNorm_Fold/bias", "FeatureExtractor/MobilenetV1/MobilenetV1/Conv2d_6_pointwise/Conv2D_Fold"], "attr": {"T": {"type": "DT_FLOAT"}}}, {"name": "FeatureExtractor/MobilenetV1/MobilenetV1/Conv2d_6_pointwise/Relu6", "op": "Relu6", "input": ["FeatureExtractor/MobilenetV1/MobilenetV1/Conv2d_6_pointwise/add_fold"], "attr": {"T": {"type": "DT_FLOAT"}}}, {"name": "FeatureExtractor/MobilenetV1/MobilenetV1/Conv2d_6_pointwise/act_quant/FakeQuantWithMinMaxVars", "op": "FakeQuantWithMinMaxVars", "input": ["FeatureExtractor/MobilenetV1/MobilenetV1/Conv2d_6_pointwise/Relu6", "FeatureExtractor/MobilenetV1/MobilenetV1/Conv2d_11_pointwise/act_quant/min", "FeatureExtractor/MobilenetV1/MobilenetV1/Conv2d_6_pointwise/act_quant/max"], "attr": {"num_bits": {"i": "8"}, "narrow_range": {"b": false}}}, {"name": "FeatureExtractor/MobilenetV1/MobilenetV1/Conv2d_7_depthwise/depthwise_Fold", "op": "DepthwiseConv2dNative", "input": ["FeatureExtractor/MobilenetV1/MobilenetV1/Conv2d_6_pointwise/act_quant/FakeQuantWithMinMaxVars", "FeatureExtractor/MobilenetV1/MobilenetV1/Conv2d_7_depthwise/weights_quant/FakeQuantWithMinMaxVars"], "attr": {"padding": {"s": "U0FNRQ=="}, "strides": {"list": {"i": ["1", "1", "1", "1"]}}, "T": {"type": "DT_FLOAT"}, "data_format": {"s": "TkhXQw=="}, "dilations": {"list": {"i": ["1", "1", "1", "1"]}}}}, {"name": "FeatureExtractor/MobilenetV1/MobilenetV1/Conv2d_7_depthwise/add_fold", "op": "Add", "input": ["FeatureExtractor/MobilenetV1/MobilenetV1/Conv2d_7_depthwise/BatchNorm_Fold/bias", "FeatureExtractor/MobilenetV1/MobilenetV1/Conv2d_7_depthwise/depthwise_Fold"], "attr": {"T": {"type": "DT_FLOAT"}}}, {"name": "FeatureExtractor/MobilenetV1/MobilenetV1/Conv2d_7_depthwise/Relu6", "op": "Relu6", "input": ["FeatureExtractor/MobilenetV1/MobilenetV1/Conv2d_7_depthwise/add_fold"], "attr": {"T": {"type": "DT_FLOAT"}}}, {"name": "FeatureExtractor/MobilenetV1/MobilenetV1/Conv2d_7_depthwise/act_quant/FakeQuantWithMinMaxVars", "op": "FakeQuantWithMinMaxVars", "input": ["FeatureExtractor/MobilenetV1/MobilenetV1/Conv2d_7_depthwise/Relu6", "FeatureExtractor/MobilenetV1/MobilenetV1/Conv2d_11_pointwise/act_quant/min", "FeatureExtractor/MobilenetV1/MobilenetV1/Conv2d_7_depthwise/act_quant/max"], "attr": {"num_bits": {"i": "8"}, "narrow_range": {"b": false}}}, {"name": "FeatureExtractor/MobilenetV1/MobilenetV1/Conv2d_7_pointwise/Conv2D_Fold", "op": "Conv2D", "input": ["FeatureExtractor/MobilenetV1/MobilenetV1/Conv2d_7_depthwise/act_quant/FakeQuantWithMinMaxVars", "FeatureExtractor/MobilenetV1/MobilenetV1/Conv2d_7_pointwise/weights_quant/FakeQuantWithMinMaxVars"], "device": "/device:CPU:0", "attr": {"T": {"type": "DT_FLOAT"}, "explicit_paddings": {"list": {}}, "dilations": {"list": {"i": ["1", "1", "1", "1"]}}, "strides": {"list": {"i": ["1", "1", "1", "1"]}}, "data_format": {"s": "TkhXQw=="}, "padding": {"s": "U0FNRQ=="}, "use_cudnn_on_gpu": {"b": true}}}, {"name": "FeatureExtractor/MobilenetV1/MobilenetV1/Conv2d_7_pointwise/add_fold", "op": "Add", "input": ["FeatureExtractor/MobilenetV1/MobilenetV1/Conv2d_7_pointwise/BatchNorm_Fold/bias", "FeatureExtractor/MobilenetV1/MobilenetV1/Conv2d_7_pointwise/Conv2D_Fold"], "attr": {"T": {"type": "DT_FLOAT"}}}, {"name": "FeatureExtractor/MobilenetV1/MobilenetV1/Conv2d_7_pointwise/Relu6", "op": "Relu6", "input": ["FeatureExtractor/MobilenetV1/MobilenetV1/Conv2d_7_pointwise/add_fold"], "attr": {"T": {"type": "DT_FLOAT"}}}, {"name": "FeatureExtractor/MobilenetV1/MobilenetV1/Conv2d_7_pointwise/act_quant/FakeQuantWithMinMaxVars", "op": "FakeQuantWithMinMaxVars", "input": ["FeatureExtractor/MobilenetV1/MobilenetV1/Conv2d_7_pointwise/Relu6", "FeatureExtractor/MobilenetV1/MobilenetV1/Conv2d_11_pointwise/act_quant/min", "FeatureExtractor/MobilenetV1/MobilenetV1/Conv2d_11_pointwise/act_quant/max"], "attr": {"num_bits": {"i": "8"}, "narrow_range": {"b": false}}}, {"name": "FeatureExtractor/MobilenetV1/MobilenetV1/Conv2d_8_depthwise/depthwise_Fold", "op": "DepthwiseConv2dNative", "input": ["FeatureExtractor/MobilenetV1/MobilenetV1/Conv2d_7_pointwise/act_quant/FakeQuantWithMinMaxVars", "FeatureExtractor/MobilenetV1/MobilenetV1/Conv2d_8_depthwise/weights_quant/FakeQuantWithMinMaxVars"], "attr": {"strides": {"list": {"i": ["1", "1", "1", "1"]}}, "data_format": {"s": "TkhXQw=="}, "T": {"type": "DT_FLOAT"}, "dilations": {"list": {"i": ["1", "1", "1", "1"]}}, "padding": {"s": "U0FNRQ=="}}}, {"name": "FeatureExtractor/MobilenetV1/MobilenetV1/Conv2d_8_depthwise/add_fold", "op": "Add", "input": ["FeatureExtractor/MobilenetV1/MobilenetV1/Conv2d_8_depthwise/BatchNorm_Fold/bias", "FeatureExtractor/MobilenetV1/MobilenetV1/Conv2d_8_depthwise/depthwise_Fold"], "attr": {"T": {"type": "DT_FLOAT"}}}, {"name": "FeatureExtractor/MobilenetV1/MobilenetV1/Conv2d_8_depthwise/Relu6", "op": "Relu6", "input": ["FeatureExtractor/MobilenetV1/MobilenetV1/Conv2d_8_depthwise/add_fold"], "attr": {"T": {"type": "DT_FLOAT"}}}, {"name": "FeatureExtractor/MobilenetV1/MobilenetV1/Conv2d_8_depthwise/act_quant/FakeQuantWithMinMaxVars", "op": "FakeQuantWithMinMaxVars", "input": ["FeatureExtractor/MobilenetV1/MobilenetV1/Conv2d_8_depthwise/Relu6", "FeatureExtractor/MobilenetV1/MobilenetV1/Conv2d_11_pointwise/act_quant/min", "FeatureExtractor/MobilenetV1/MobilenetV1/Conv2d_8_depthwise/act_quant/max"], "attr": {"num_bits": {"i": "8"}, "narrow_range": {"b": false}}}, {"name": "FeatureExtractor/MobilenetV1/MobilenetV1/Conv2d_8_pointwise/Conv2D_Fold", "op": "Conv2D", "input": ["FeatureExtractor/MobilenetV1/MobilenetV1/Conv2d_8_depthwise/act_quant/FakeQuantWithMinMaxVars", "FeatureExtractor/MobilenetV1/MobilenetV1/Conv2d_8_pointwise/weights_quant/FakeQuantWithMinMaxVars"], "device": "/device:CPU:0", "attr": {"use_cudnn_on_gpu": {"b": true}, "explicit_paddings": {"list": {}}, "data_format": {"s": "TkhXQw=="}, "T": {"type": "DT_FLOAT"}, "dilations": {"list": {"i": ["1", "1", "1", "1"]}}, "strides": {"list": {"i": ["1", "1", "1", "1"]}}, "padding": {"s": "U0FNRQ=="}}}, {"name": "FeatureExtractor/MobilenetV1/MobilenetV1/Conv2d_8_pointwise/add_fold", "op": "Add", "input": ["FeatureExtractor/MobilenetV1/MobilenetV1/Conv2d_8_pointwise/BatchNorm_Fold/bias", "FeatureExtractor/MobilenetV1/MobilenetV1/Conv2d_8_pointwise/Conv2D_Fold"], "attr": {"T": {"type": "DT_FLOAT"}}}, {"name": "FeatureExtractor/MobilenetV1/MobilenetV1/Conv2d_8_pointwise/Relu6", "op": "Relu6", "input": ["FeatureExtractor/MobilenetV1/MobilenetV1/Conv2d_8_pointwise/add_fold"], "attr": {"T": {"type": "DT_FLOAT"}}}, {"name": "FeatureExtractor/MobilenetV1/MobilenetV1/Conv2d_8_pointwise/act_quant/FakeQuantWithMinMaxVars", "op": "FakeQuantWithMinMaxVars", "input": ["FeatureExtractor/MobilenetV1/MobilenetV1/Conv2d_8_pointwise/Relu6", "FeatureExtractor/MobilenetV1/MobilenetV1/Conv2d_11_pointwise/act_quant/min", "FeatureExtractor/MobilenetV1/MobilenetV1/Conv2d_11_pointwise/act_quant/max"], "attr": {"narrow_range": {"b": false}, "num_bits": {"i": "8"}}}, {"name": "FeatureExtractor/MobilenetV1/MobilenetV1/Conv2d_9_depthwise/depthwise_Fold", "op": "DepthwiseConv2dNative", "input": ["FeatureExtractor/MobilenetV1/MobilenetV1/Conv2d_8_pointwise/act_quant/FakeQuantWithMinMaxVars", "FeatureExtractor/MobilenetV1/MobilenetV1/Conv2d_9_depthwise/weights_quant/FakeQuantWithMinMaxVars"], "attr": {"data_format": {"s": "TkhXQw=="}, "dilations": {"list": {"i": ["1", "1", "1", "1"]}}, "T": {"type": "DT_FLOAT"}, "strides": {"list": {"i": ["1", "1", "1", "1"]}}, "padding": {"s": "U0FNRQ=="}}}, {"name": "FeatureExtractor/MobilenetV1/MobilenetV1/Conv2d_9_depthwise/add_fold", "op": "Add", "input": ["FeatureExtractor/MobilenetV1/MobilenetV1/Conv2d_9_depthwise/BatchNorm_Fold/bias", "FeatureExtractor/MobilenetV1/MobilenetV1/Conv2d_9_depthwise/depthwise_Fold"], "attr": {"T": {"type": "DT_FLOAT"}}}, {"name": "FeatureExtractor/MobilenetV1/MobilenetV1/Conv2d_9_depthwise/Relu6", "op": "Relu6", "input": ["FeatureExtractor/MobilenetV1/MobilenetV1/Conv2d_9_depthwise/add_fold"], "attr": {"T": {"type": "DT_FLOAT"}}}, {"name": "FeatureExtractor/MobilenetV1/MobilenetV1/Conv2d_9_depthwise/act_quant/FakeQuantWithMinMaxVars", "op": "FakeQuantWithMinMaxVars", "input": ["FeatureExtractor/MobilenetV1/MobilenetV1/Conv2d_9_depthwise/Relu6", "FeatureExtractor/MobilenetV1/MobilenetV1/Conv2d_11_pointwise/act_quant/min", "FeatureExtractor/MobilenetV1/MobilenetV1/Conv2d_11_pointwise/act_quant/max"], "attr": {"num_bits": {"i": "8"}, "narrow_range": {"b": false}}}, {"name": "FeatureExtractor/MobilenetV1/MobilenetV1/Conv2d_9_pointwise/Conv2D_Fold", "op": "Conv2D", "input": ["FeatureExtractor/MobilenetV1/MobilenetV1/Conv2d_9_depthwise/act_quant/FakeQuantWithMinMaxVars", "FeatureExtractor/MobilenetV1/MobilenetV1/Conv2d_9_pointwise/weights_quant/FakeQuantWithMinMaxVars"], "device": "/device:CPU:0", "attr": {"explicit_paddings": {"list": {}}, "T": {"type": "DT_FLOAT"}, "padding": {"s": "U0FNRQ=="}, "strides": {"list": {"i": ["1", "1", "1", "1"]}}, "data_format": {"s": "TkhXQw=="}, "dilations": {"list": {"i": ["1", "1", "1", "1"]}}, "use_cudnn_on_gpu": {"b": true}}}, {"name": "FeatureExtractor/MobilenetV1/MobilenetV1/Conv2d_9_pointwise/add_fold", "op": "Add", "input": ["FeatureExtractor/MobilenetV1/MobilenetV1/Conv2d_9_pointwise/BatchNorm_Fold/bias", "FeatureExtractor/MobilenetV1/MobilenetV1/Conv2d_9_pointwise/Conv2D_Fold"], "attr": {"T": {"type": "DT_FLOAT"}}}, {"name": "FeatureExtractor/MobilenetV1/MobilenetV1/Conv2d_9_pointwise/Relu6", "op": "Relu6", "input": ["FeatureExtractor/MobilenetV1/MobilenetV1/Conv2d_9_pointwise/add_fold"], "attr": {"T": {"type": "DT_FLOAT"}}}, {"name": "FeatureExtractor/MobilenetV1/MobilenetV1/Conv2d_9_pointwise/act_quant/FakeQuantWithMinMaxVars", "op": "FakeQuantWithMinMaxVars", "input": ["FeatureExtractor/MobilenetV1/MobilenetV1/Conv2d_9_pointwise/Relu6", "FeatureExtractor/MobilenetV1/MobilenetV1/Conv2d_11_pointwise/act_quant/min", "FeatureExtractor/MobilenetV1/MobilenetV1/Conv2d_11_pointwise/act_quant/max"], "attr": {"num_bits": {"i": "8"}, "narrow_range": {"b": false}}}, {"name": "FeatureExtractor/MobilenetV1/MobilenetV1/Conv2d_10_depthwise/depthwise_Fold", "op": "DepthwiseConv2dNative", "input": ["FeatureExtractor/MobilenetV1/MobilenetV1/Conv2d_9_pointwise/act_quant/FakeQuantWithMinMaxVars", "FeatureExtractor/MobilenetV1/MobilenetV1/Conv2d_10_depthwise/weights_quant/FakeQuantWithMinMaxVars"], "attr": {"T": {"type": "DT_FLOAT"}, "padding": {"s": "U0FNRQ=="}, "data_format": {"s": "TkhXQw=="}, "strides": {"list": {"i": ["1", "1", "1", "1"]}}, "dilations": {"list": {"i": ["1", "1", "1", "1"]}}}}, {"name": "FeatureExtractor/MobilenetV1/MobilenetV1/Conv2d_10_depthwise/add_fold", "op": "Add", "input": ["FeatureExtractor/MobilenetV1/MobilenetV1/Conv2d_10_depthwise/BatchNorm_Fold/bias", "FeatureExtractor/MobilenetV1/MobilenetV1/Conv2d_10_depthwise/depthwise_Fold"], "attr": {"T": {"type": "DT_FLOAT"}}}, {"name": "FeatureExtractor/MobilenetV1/MobilenetV1/Conv2d_10_depthwise/Relu6", "op": "Relu6", "input": ["FeatureExtractor/MobilenetV1/MobilenetV1/Conv2d_10_depthwise/add_fold"], "attr": {"T": {"type": "DT_FLOAT"}}}, {"name": "FeatureExtractor/MobilenetV1/MobilenetV1/Conv2d_10_depthwise/act_quant/FakeQuantWithMinMaxVars", "op": "FakeQuantWithMinMaxVars", "input": ["FeatureExtractor/MobilenetV1/MobilenetV1/Conv2d_10_depthwise/Relu6", "FeatureExtractor/MobilenetV1/MobilenetV1/Conv2d_11_pointwise/act_quant/min", "FeatureExtractor/MobilenetV1/MobilenetV1/Conv2d_11_pointwise/act_quant/max"], "attr": {"num_bits": {"i": "8"}, "narrow_range": {"b": false}}}, {"name": "FeatureExtractor/MobilenetV1/MobilenetV1/Conv2d_10_pointwise/Conv2D_Fold", "op": "Conv2D", "input": ["FeatureExtractor/MobilenetV1/MobilenetV1/Conv2d_10_depthwise/act_quant/FakeQuantWithMinMaxVars", "FeatureExtractor/MobilenetV1/MobilenetV1/Conv2d_10_pointwise/weights_quant/FakeQuantWithMinMaxVars"], "device": "/device:CPU:0", "attr": {"data_format": {"s": "TkhXQw=="}, "strides": {"list": {"i": ["1", "1", "1", "1"]}}, "use_cudnn_on_gpu": {"b": true}, "padding": {"s": "U0FNRQ=="}, "explicit_paddings": {"list": {}}, "T": {"type": "DT_FLOAT"}, "dilations": {"list": {"i": ["1", "1", "1", "1"]}}}}, {"name": "FeatureExtractor/MobilenetV1/MobilenetV1/Conv2d_10_pointwise/add_fold", "op": "Add", "input": ["FeatureExtractor/MobilenetV1/MobilenetV1/Conv2d_10_pointwise/BatchNorm_Fold/bias", "FeatureExtractor/MobilenetV1/MobilenetV1/Conv2d_10_pointwise/Conv2D_Fold"], "attr": {"T": {"type": "DT_FLOAT"}}}, {"name": "FeatureExtractor/MobilenetV1/MobilenetV1/Conv2d_10_pointwise/Relu6", "op": "Relu6", "input": ["FeatureExtractor/MobilenetV1/MobilenetV1/Conv2d_10_pointwise/add_fold"], "attr": {"T": {"type": "DT_FLOAT"}}}, {"name": "FeatureExtractor/MobilenetV1/MobilenetV1/Conv2d_10_pointwise/act_quant/FakeQuantWithMinMaxVars", "op": "FakeQuantWithMinMaxVars", "input": ["FeatureExtractor/MobilenetV1/MobilenetV1/Conv2d_10_pointwise/Relu6", "FeatureExtractor/MobilenetV1/MobilenetV1/Conv2d_11_pointwise/act_quant/min", "FeatureExtractor/MobilenetV1/MobilenetV1/Conv2d_11_pointwise/act_quant/max"], "attr": {"num_bits": {"i": "8"}, "narrow_range": {"b": false}}}, {"name": "FeatureExtractor/MobilenetV1/MobilenetV1/Conv2d_11_depthwise/depthwise_Fold", "op": "DepthwiseConv2dNative", "input": ["FeatureExtractor/MobilenetV1/MobilenetV1/Conv2d_10_pointwise/act_quant/FakeQuantWithMinMaxVars", "FeatureExtractor/MobilenetV1/MobilenetV1/Conv2d_11_depthwise/weights_quant/FakeQuantWithMinMaxVars"], "attr": {"T": {"type": "DT_FLOAT"}, "strides": {"list": {"i": ["1", "1", "1", "1"]}}, "data_format": {"s": "TkhXQw=="}, "dilations": {"list": {"i": ["1", "1", "1", "1"]}}, "padding": {"s": "U0FNRQ=="}}}, {"name": "FeatureExtractor/MobilenetV1/MobilenetV1/Conv2d_11_depthwise/add_fold", "op": "Add", "input": ["FeatureExtractor/MobilenetV1/MobilenetV1/Conv2d_11_depthwise/BatchNorm_Fold/bias", "FeatureExtractor/MobilenetV1/MobilenetV1/Conv2d_11_depthwise/depthwise_Fold"], "attr": {"T": {"type": "DT_FLOAT"}}}, {"name": "FeatureExtractor/MobilenetV1/MobilenetV1/Conv2d_11_depthwise/Relu6", "op": "Relu6", "input": ["FeatureExtractor/MobilenetV1/MobilenetV1/Conv2d_11_depthwise/add_fold"], "attr": {"T": {"type": "DT_FLOAT"}}}, {"name": "FeatureExtractor/MobilenetV1/MobilenetV1/Conv2d_11_depthwise/act_quant/FakeQuantWithMinMaxVars", "op": "FakeQuantWithMinMaxVars", "input": ["FeatureExtractor/MobilenetV1/MobilenetV1/Conv2d_11_depthwise/Relu6", "FeatureExtractor/MobilenetV1/MobilenetV1/Conv2d_11_pointwise/act_quant/min", "FeatureExtractor/MobilenetV1/MobilenetV1/Conv2d_11_pointwise/act_quant/max"], "attr": {"num_bits": {"i": "8"}, "narrow_range": {"b": false}}}, {"name": "FeatureExtractor/MobilenetV1/MobilenetV1/Conv2d_11_pointwise/Conv2D_Fold", "op": "Conv2D", "input": ["FeatureExtractor/MobilenetV1/MobilenetV1/Conv2d_11_depthwise/act_quant/FakeQuantWithMinMaxVars", "FeatureExtractor/MobilenetV1/MobilenetV1/Conv2d_11_pointwise/weights_quant/FakeQuantWithMinMaxVars"], "device": "/device:CPU:0", "attr": {"strides": {"list": {"i": ["1", "1", "1", "1"]}}, "padding": {"s": "U0FNRQ=="}, "use_cudnn_on_gpu": {"b": true}, "dilations": {"list": {"i": ["1", "1", "1", "1"]}}, "T": {"type": "DT_FLOAT"}, "explicit_paddings": {"list": {}}, "data_format": {"s": "TkhXQw=="}}}, {"name": "FeatureExtractor/MobilenetV1/MobilenetV1/Conv2d_11_pointwise/add_fold", "op": "Add", "input": ["FeatureExtractor/MobilenetV1/MobilenetV1/Conv2d_11_pointwise/BatchNorm_Fold/bias", "FeatureExtractor/MobilenetV1/MobilenetV1/Conv2d_11_pointwise/Conv2D_Fold"], "attr": {"T": {"type": "DT_FLOAT"}}}, {"name": "FeatureExtractor/MobilenetV1/MobilenetV1/Conv2d_11_pointwise/Relu6", "op": "Relu6", "input": ["FeatureExtractor/MobilenetV1/MobilenetV1/Conv2d_11_pointwise/add_fold"], "attr": {"T": {"type": "DT_FLOAT"}}}, {"name": "FeatureExtractor/MobilenetV1/MobilenetV1/Conv2d_11_pointwise/act_quant/FakeQuantWithMinMaxVars", "op": "FakeQuantWithMinMaxVars", "input": ["FeatureExtractor/MobilenetV1/MobilenetV1/Conv2d_11_pointwise/Relu6", "FeatureExtractor/MobilenetV1/MobilenetV1/Conv2d_11_pointwise/act_quant/min", "FeatureExtractor/MobilenetV1/MobilenetV1/Conv2d_11_pointwise/act_quant/max"], "attr": {"num_bits": {"i": "8"}, "narrow_range": {"b": false}}}, {"name": "BoxPredictor_0/Shape", "op": "Shape", "input": ["FeatureExtractor/MobilenetV1/MobilenetV1/Conv2d_11_pointwise/act_quant/FakeQuantWithMinMaxVars"], "attr": {"T": {"type": "DT_FLOAT"}, "out_type": {"type": "DT_INT32"}}}, {"name": "FeatureExtractor/MobilenetV1/MobilenetV1/Conv2d_12_depthwise/depthwise_Fold", "op": "DepthwiseConv2dNative", "input": ["FeatureExtractor/MobilenetV1/MobilenetV1/Conv2d_11_pointwise/act_quant/FakeQuantWithMinMaxVars", "FeatureExtractor/MobilenetV1/MobilenetV1/Conv2d_12_depthwise/weights_quant/FakeQuantWithMinMaxVars"], "attr": {"data_format": {"s": "TkhXQw=="}, "dilations": {"list": {"i": ["1", "1", "1", "1"]}}, "T": {"type": "DT_FLOAT"}, "strides": {"list": {"i": ["1", "2", "2", "1"]}}, "padding": {"s": "U0FNRQ=="}}}, {"name": "BoxPredictor_0/BoxEncodingPredictor/BiasAdd", "op": "_FusedConv2D", "input": ["FeatureExtractor/MobilenetV1/MobilenetV1/Conv2d_11_pointwise/act_quant/FakeQuantWithMinMaxVars", "BoxPredictor_0/BoxEncodingPredictor/weights_quant/FakeQuantWithMinMaxVars", "BoxPredictor_0/BoxEncodingPredictor/biases"], "device": "/device:CPU:0", "attr": {"T": {"type": "DT_FLOAT"}, "dilations": {"list": {"i": ["1", "1", "1", "1"]}}, "strides": {"list": {"i": ["1", "1", "1", "1"]}}, "explicit_paddings": {"list": {}}, "padding": {"s": "U0FNRQ=="}, "epsilon": {"f": 0.0}, "num_args": {"i": "1"}, "use_cudnn_on_gpu": {"b": true}, "data_format": {"s": "TkhXQw=="}, "fused_ops": {"list": {"s": ["Qmlhc0FkZA=="]}}}}, {"name": "BoxPredictor_0/ClassPredictor/BiasAdd", "op": "_FusedConv2D", "input": ["FeatureExtractor/MobilenetV1/MobilenetV1/Conv2d_11_pointwise/act_quant/FakeQuantWithMinMaxVars", "BoxPredictor_0/ClassPredictor/weights_quant/FakeQuantWithMinMaxVars", "BoxPredictor_0/ClassPredictor/biases"], "device": "/device:CPU:0", "attr": {"fused_ops": {"list": {"s": ["Qmlhc0FkZA=="]}}, "T": {"type": "DT_FLOAT"}, "epsilon": {"f": 0.0}, "explicit_paddings": {"list": {}}, "padding": {"s": "U0FNRQ=="}, "strides": {"list": {"i": ["1", "1", "1", "1"]}}, "data_format": {"s": "TkhXQw=="}, "use_cudnn_on_gpu": {"b": true}, "dilations": {"list": {"i": ["1", "1", "1", "1"]}}, "num_args": {"i": "1"}}}, {"name": "BoxPredictor_0/strided_slice", "op": "StridedSlice", "input": ["BoxPredictor_0/Shape", "Preprocessor/map/strided_slice/stack", "Preprocessor/map/strided_slice/stack_1", "Preprocessor/map/strided_slice/stack_1"], "attr": {"T": {"type": "DT_INT32"}, "ellipsis_mask": {"i": "0"}, "Index": {"type": "DT_INT32"}, "new_axis_mask": {"i": "0"}, "end_mask": {"i": "0"}, "begin_mask": {"i": "0"}, "shrink_axis_mask": {"i": "1"}}}, {"name": "FeatureExtractor/MobilenetV1/MobilenetV1/Conv2d_12_depthwise/add_fold", "op": "Add", "input": ["FeatureExtractor/MobilenetV1/MobilenetV1/Conv2d_12_depthwise/BatchNorm_Fold/bias", "FeatureExtractor/MobilenetV1/MobilenetV1/Conv2d_12_depthwise/depthwise_Fold"], "attr": {"T": {"type": "DT_FLOAT"}}}, {"name": "BoxPredictor_0/BoxEncodingPredictor/act_quant/FakeQuantWithMinMaxVars", "op": "FakeQuantWithMinMaxVars", "input": ["BoxPredictor_0/BoxEncodingPredictor/BiasAdd", "BoxPredictor_0/BoxEncodingPredictor/act_quant/min", "BoxPredictor_0/BoxEncodingPredictor/act_quant/max"], "attr": {"narrow_range": {"b": false}, "num_bits": {"i": "8"}}}, {"name": "BoxPredictor_0/ClassPredictor/act_quant/FakeQuantWithMinMaxVars", "op": "FakeQuantWithMinMaxVars", "input": ["BoxPredictor_0/ClassPredictor/BiasAdd", "BoxPredictor_0/ClassPredictor/act_quant/min", "FeatureExtractor/MobilenetV1/MobilenetV1/Conv2d_11_pointwise/act_quant/min"], "attr": {"num_bits": {"i": "8"}, "narrow_range": {"b": false}}}, {"name": "BoxPredictor_0/Reshape/shape", "op": "Pack", "input": ["BoxPredictor_0/strided_slice", "BoxPredictor_0/Reshape/shape/1", "Preprocessor/map/TensorArrayUnstack/range/delta", "BoxPredictor_0/Reshape/shape/3"], "attr": {"axis": {"i": "0"}, "N": {"i": "4"}, "T": {"type": "DT_INT32"}}}, {"name": "BoxPredictor_0/Reshape_1/shape", "op": "Pack", "input": ["BoxPredictor_0/strided_slice", "BoxPredictor_0/Reshape/shape/1", "BoxPredictor_0/Reshape/shape/3"], "attr": {"T": {"type": "DT_INT32"}, "N": {"i": "3"}, "axis": {"i": "0"}}}, {"name": "FeatureExtractor/MobilenetV1/MobilenetV1/Conv2d_12_depthwise/Relu6", "op": "Relu6", "input": ["FeatureExtractor/MobilenetV1/MobilenetV1/Conv2d_12_depthwise/add_fold"], "attr": {"T": {"type": "DT_FLOAT"}}}, {"name": "BoxPredictor_0/Reshape", "op": "Reshape", "input": ["BoxPredictor_0/BoxEncodingPredictor/act_quant/FakeQuantWithMinMaxVars", "BoxPredictor_0/Reshape/shape"], "attr": {"Tshape": {"type": "DT_INT32"}, "T": {"type": "DT_FLOAT"}}}, {"name": "BoxPredictor_0/Reshape_1", "op": "Reshape", "input": ["BoxPredictor_0/ClassPredictor/act_quant/FakeQuantWithMinMaxVars", "BoxPredictor_0/Reshape_1/shape"], "attr": {"Tshape": {"type": "DT_INT32"}, "T": {"type": "DT_FLOAT"}}}, {"name": "FeatureExtractor/MobilenetV1/MobilenetV1/Conv2d_12_depthwise/act_quant/FakeQuantWithMinMaxVars", "op": "FakeQuantWithMinMaxVars", "input": ["FeatureExtractor/MobilenetV1/MobilenetV1/Conv2d_12_depthwise/Relu6", "FeatureExtractor/MobilenetV1/MobilenetV1/Conv2d_11_pointwise/act_quant/min", "FeatureExtractor/MobilenetV1/MobilenetV1/Conv2d_11_pointwise/act_quant/max"], "attr": {"narrow_range": {"b": false}, "num_bits": {"i": "8"}}}, {"name": "FeatureExtractor/MobilenetV1/MobilenetV1/Conv2d_12_pointwise/Conv2D_Fold", "op": "Conv2D", "input": ["FeatureExtractor/MobilenetV1/MobilenetV1/Conv2d_12_depthwise/act_quant/FakeQuantWithMinMaxVars", "FeatureExtractor/MobilenetV1/MobilenetV1/Conv2d_12_pointwise/weights_quant/FakeQuantWithMinMaxVars"], "device": "/device:CPU:0", "attr": {"strides": {"list": {"i": ["1", "1", "1", "1"]}}, "dilations": {"list": {"i": ["1", "1", "1", "1"]}}, "data_format": {"s": "TkhXQw=="}, "padding": {"s": "U0FNRQ=="}, "T": {"type": "DT_FLOAT"}, "explicit_paddings": {"list": {}}, "use_cudnn_on_gpu": {"b": true}}}, {"name": "FeatureExtractor/MobilenetV1/MobilenetV1/Conv2d_12_pointwise/add_fold", "op": "Add", "input": ["FeatureExtractor/MobilenetV1/MobilenetV1/Conv2d_12_pointwise/BatchNorm_Fold/bias", "FeatureExtractor/MobilenetV1/MobilenetV1/Conv2d_12_pointwise/Conv2D_Fold"], "attr": {"T": {"type": "DT_FLOAT"}}}, {"name": "FeatureExtractor/MobilenetV1/MobilenetV1/Conv2d_12_pointwise/Relu6", "op": "Relu6", "input": ["FeatureExtractor/MobilenetV1/MobilenetV1/Conv2d_12_pointwise/add_fold"], "attr": {"T": {"type": "DT_FLOAT"}}}, {"name": "FeatureExtractor/MobilenetV1/MobilenetV1/Conv2d_12_pointwise/act_quant/FakeQuantWithMinMaxVars", "op": "FakeQuantWithMinMaxVars", "input": ["FeatureExtractor/MobilenetV1/MobilenetV1/Conv2d_12_pointwise/Relu6", "FeatureExtractor/MobilenetV1/MobilenetV1/Conv2d_11_pointwise/act_quant/min", "FeatureExtractor/MobilenetV1/MobilenetV1/Conv2d_11_pointwise/act_quant/max"], "attr": {"narrow_range": {"b": false}, "num_bits": {"i": "8"}}}, {"name": "FeatureExtractor/MobilenetV1/MobilenetV1/Conv2d_13_depthwise/depthwise_Fold", "op": "DepthwiseConv2dNative", "input": ["FeatureExtractor/MobilenetV1/MobilenetV1/Conv2d_12_pointwise/act_quant/FakeQuantWithMinMaxVars", "FeatureExtractor/MobilenetV1/MobilenetV1/Conv2d_13_depthwise/weights_quant/FakeQuantWithMinMaxVars"], "attr": {"T": {"type": "DT_FLOAT"}, "strides": {"list": {"i": ["1", "1", "1", "1"]}}, "padding": {"s": "U0FNRQ=="}, "dilations": {"list": {"i": ["1", "1", "1", "1"]}}, "data_format": {"s": "TkhXQw=="}}}, {"name": "FeatureExtractor/MobilenetV1/MobilenetV1/Conv2d_13_depthwise/add_fold", "op": "Add", "input": ["FeatureExtractor/MobilenetV1/MobilenetV1/Conv2d_13_depthwise/BatchNorm_Fold/bias", "FeatureExtractor/MobilenetV1/MobilenetV1/Conv2d_13_depthwise/depthwise_Fold"], "attr": {"T": {"type": "DT_FLOAT"}}}, {"name": "FeatureExtractor/MobilenetV1/MobilenetV1/Conv2d_13_depthwise/Relu6", "op": "Relu6", "input": ["FeatureExtractor/MobilenetV1/MobilenetV1/Conv2d_13_depthwise/add_fold"], "attr": {"T": {"type": "DT_FLOAT"}}}, {"name": "FeatureExtractor/MobilenetV1/MobilenetV1/Conv2d_13_depthwise/act_quant/FakeQuantWithMinMaxVars", "op": "FakeQuantWithMinMaxVars", "input": ["FeatureExtractor/MobilenetV1/MobilenetV1/Conv2d_13_depthwise/Relu6", "FeatureExtractor/MobilenetV1/MobilenetV1/Conv2d_11_pointwise/act_quant/min", "FeatureExtractor/MobilenetV1/MobilenetV1/Conv2d_11_pointwise/act_quant/max"], "attr": {"narrow_range": {"b": false}, "num_bits": {"i": "8"}}}, {"name": "FeatureExtractor/MobilenetV1/MobilenetV1/Conv2d_13_pointwise/Conv2D_Fold", "op": "Conv2D", "input": ["FeatureExtractor/MobilenetV1/MobilenetV1/Conv2d_13_depthwise/act_quant/FakeQuantWithMinMaxVars", "FeatureExtractor/MobilenetV1/MobilenetV1/Conv2d_13_pointwise/weights_quant/FakeQuantWithMinMaxVars"], "device": "/device:CPU:0", "attr": {"dilations": {"list": {"i": ["1", "1", "1", "1"]}}, "padding": {"s": "U0FNRQ=="}, "T": {"type": "DT_FLOAT"}, "use_cudnn_on_gpu": {"b": true}, "data_format": {"s": "TkhXQw=="}, "explicit_paddings": {"list": {}}, "strides": {"list": {"i": ["1", "1", "1", "1"]}}}}, {"name": "FeatureExtractor/MobilenetV1/MobilenetV1/Conv2d_13_pointwise/add_fold", "op": "Add", "input": ["FeatureExtractor/MobilenetV1/MobilenetV1/Conv2d_13_pointwise/BatchNorm_Fold/bias", "FeatureExtractor/MobilenetV1/MobilenetV1/Conv2d_13_pointwise/Conv2D_Fold"], "attr": {"T": {"type": "DT_FLOAT"}}}, {"name": "FeatureExtractor/MobilenetV1/MobilenetV1/Conv2d_13_pointwise/Relu6", "op": "Relu6", "input": ["FeatureExtractor/MobilenetV1/MobilenetV1/Conv2d_13_pointwise/add_fold"], "attr": {"T": {"type": "DT_FLOAT"}}}, {"name": "FeatureExtractor/MobilenetV1/MobilenetV1/Conv2d_13_pointwise/act_quant/FakeQuantWithMinMaxVars", "op": "FakeQuantWithMinMaxVars", "input": ["FeatureExtractor/MobilenetV1/MobilenetV1/Conv2d_13_pointwise/Relu6", "FeatureExtractor/MobilenetV1/MobilenetV1/Conv2d_11_pointwise/act_quant/min", "FeatureExtractor/MobilenetV1/MobilenetV1/Conv2d_13_pointwise/act_quant/max"], "attr": {"num_bits": {"i": "8"}, "narrow_range": {"b": false}}}, {"name": "FeatureExtractor/MobilenetV1/Conv2d_13_pointwise_1_Conv2d_2_1x1_256/Conv2D_Fold", "op": "Conv2D", "input": ["FeatureExtractor/MobilenetV1/MobilenetV1/Conv2d_13_pointwise/act_quant/FakeQuantWithMinMaxVars", "FeatureExtractor/MobilenetV1/Conv2d_13_pointwise_1_Conv2d_2_1x1_256/weights_quant/FakeQuantWithMinMaxVars"], "device": "/device:CPU:0", "attr": {"strides": {"list": {"i": ["1", "1", "1", "1"]}}, "explicit_paddings": {"list": {}}, "dilations": {"list": {"i": ["1", "1", "1", "1"]}}, "use_cudnn_on_gpu": {"b": true}, "data_format": {"s": "TkhXQw=="}, "padding": {"s": "U0FNRQ=="}, "T": {"type": "DT_FLOAT"}}}, {"name": "BoxPredictor_1/BoxEncodingPredictor/BiasAdd", "op": "_FusedConv2D", "input": ["FeatureExtractor/MobilenetV1/MobilenetV1/Conv2d_13_pointwise/act_quant/FakeQuantWithMinMaxVars", "BoxPredictor_1/BoxEncodingPredictor/weights_quant/FakeQuantWithMinMaxVars", "BoxPredictor_1/BoxEncodingPredictor/biases"], "device": "/device:CPU:0", "attr": {"strides": {"list": {"i": ["1", "1", "1", "1"]}}, "num_args": {"i": "1"}, "dilations": {"list": {"i": ["1", "1", "1", "1"]}}, "explicit_paddings": {"list": {}}, "padding": {"s": "U0FNRQ=="}, "fused_ops": {"list": {"s": ["Qmlhc0FkZA=="]}}, "use_cudnn_on_gpu": {"b": true}, "data_format": {"s": "TkhXQw=="}, "T": {"type": "DT_FLOAT"}, "epsilon": {"f": 0.0}}}, {"name": "BoxPredictor_1/ClassPredictor/BiasAdd", "op": "_FusedConv2D", "input": ["FeatureExtractor/MobilenetV1/MobilenetV1/Conv2d_13_pointwise/act_quant/FakeQuantWithMinMaxVars", "BoxPredictor_1/ClassPredictor/weights_quant/FakeQuantWithMinMaxVars", "BoxPredictor_1/ClassPredictor/biases"], "device": "/device:CPU:0", "attr": {"data_format": {"s": "TkhXQw=="}, "strides": {"list": {"i": ["1", "1", "1", "1"]}}, "T": {"type": "DT_FLOAT"}, "fused_ops": {"list": {"s": ["Qmlhc0FkZA=="]}}, "explicit_paddings": {"list": {}}, "use_cudnn_on_gpu": {"b": true}, "dilations": {"list": {"i": ["1", "1", "1", "1"]}}, "num_args": {"i": "1"}, "padding": {"s": "U0FNRQ=="}, "epsilon": {"f": 0.0}}}, {"name": "BoxPredictor_1/Shape", "op": "Shape", "input": ["FeatureExtractor/MobilenetV1/MobilenetV1/Conv2d_13_pointwise/act_quant/FakeQuantWithMinMaxVars"], "attr": {"T": {"type": "DT_FLOAT"}, "out_type": {"type": "DT_INT32"}}}, {"name": "FeatureExtractor/MobilenetV1/Conv2d_13_pointwise_1_Conv2d_2_1x1_256/add_fold", "op": "Add", "input": ["FeatureExtractor/MobilenetV1/Conv2d_13_pointwise_1_Conv2d_2_1x1_256/BatchNorm_Fold/bias", "FeatureExtractor/MobilenetV1/Conv2d_13_pointwise_1_Conv2d_2_1x1_256/Conv2D_Fold"], "attr": {"T": {"type": "DT_FLOAT"}}}, {"name": "BoxPredictor_1/BoxEncodingPredictor/act_quant/FakeQuantWithMinMaxVars", "op": "FakeQuantWithMinMaxVars", "input": ["BoxPredictor_1/BoxEncodingPredictor/BiasAdd", "BoxPredictor_1/BoxEncodingPredictor/act_quant/min", "BoxPredictor_1/BoxEncodingPredictor/act_quant/max"], "attr": {"narrow_range": {"b": false}, "num_bits": {"i": "8"}}}, {"name": "BoxPredictor_1/ClassPredictor/act_quant/FakeQuantWithMinMaxVars", "op": "FakeQuantWithMinMaxVars", "input": ["BoxPredictor_1/ClassPredictor/BiasAdd", "BoxPredictor_1/ClassPredictor/act_quant/min", "BoxPredictor_1/ClassPredictor/act_quant/max"], "attr": {"narrow_range": {"b": false}, "num_bits": {"i": "8"}}}, {"name": "BoxPredictor_1/strided_slice", "op": "StridedSlice", "input": ["BoxPredictor_1/Shape", "Preprocessor/map/strided_slice/stack", "Preprocessor/map/strided_slice/stack_1", "Preprocessor/map/strided_slice/stack_1"], "attr": {"ellipsis_mask": {"i": "0"}, "end_mask": {"i": "0"}, "Index": {"type": "DT_INT32"}, "new_axis_mask": {"i": "0"}, "begin_mask": {"i": "0"}, "T": {"type": "DT_INT32"}, "shrink_axis_mask": {"i": "1"}}}, {"name": "FeatureExtractor/MobilenetV1/Conv2d_13_pointwise_1_Conv2d_2_1x1_256/Relu6", "op": "Relu6", "input": ["FeatureExtractor/MobilenetV1/Conv2d_13_pointwise_1_Conv2d_2_1x1_256/add_fold"], "attr": {"T": {"type": "DT_FLOAT"}}}, {"name": "BoxPredictor_1/Reshape/shape", "op": "Pack", "input": ["BoxPredictor_1/strided_slice", "BoxPredictor_0/Reshape/shape/1", "Preprocessor/map/TensorArrayUnstack/range/delta", "BoxPredictor_0/Reshape/shape/3"], "attr": {"T": {"type": "DT_INT32"}, "N": {"i": "4"}, "axis": {"i": "0"}}}, {"name": "BoxPredictor_1/Reshape_1/shape", "op": "Pack", "input": ["BoxPredictor_1/strided_slice", "BoxPredictor_0/Reshape/shape/1", "BoxPredictor_0/Reshape/shape/3"], "attr": {"axis": {"i": "0"}, "T": {"type": "DT_INT32"}, "N": {"i": "3"}}}, {"name": "FeatureExtractor/MobilenetV1/Conv2d_13_pointwise_1_Conv2d_2_1x1_256/act_quant/FakeQuantWithMinMaxVars", "op": "FakeQuantWithMinMaxVars", "input": ["FeatureExtractor/MobilenetV1/Conv2d_13_pointwise_1_Conv2d_2_1x1_256/Relu6", "FeatureExtractor/MobilenetV1/Conv2d_13_pointwise_1_Conv2d_2_1x1_256/act_quant/min", "FeatureExtractor/MobilenetV1/Conv2d_13_pointwise_1_Conv2d_2_1x1_256/act_quant/max"], "attr": {"narrow_range": {"b": false}, "num_bits": {"i": "8"}}}, {"name": "BoxPredictor_1/Reshape", "op": "Reshape", "input": ["BoxPredictor_1/BoxEncodingPredictor/act_quant/FakeQuantWithMinMaxVars", "BoxPredictor_1/Reshape/shape"], "attr": {"T": {"type": "DT_FLOAT"}, "Tshape": {"type": "DT_INT32"}}}, {"name": "BoxPredictor_1/Reshape_1", "op": "Reshape", "input": ["BoxPredictor_1/ClassPredictor/act_quant/FakeQuantWithMinMaxVars", "BoxPredictor_1/Reshape_1/shape"], "attr": {"T": {"type": "DT_FLOAT"}, "Tshape": {"type": "DT_INT32"}}}, {"name": "FeatureExtractor/MobilenetV1/Conv2d_13_pointwise_2_Conv2d_2_3x3_s2_512/Conv2D_Fold", "op": "Conv2D", "input": ["FeatureExtractor/MobilenetV1/Conv2d_13_pointwise_1_Conv2d_2_1x1_256/act_quant/FakeQuantWithMinMaxVars", "FeatureExtractor/MobilenetV1/Conv2d_13_pointwise_2_Conv2d_2_3x3_s2_512/weights_quant/FakeQuantWithMinMaxVars"], "device": "/device:CPU:0", "attr": {"strides": {"list": {"i": ["1", "2", "2", "1"]}}, "T": {"type": "DT_FLOAT"}, "padding": {"s": "U0FNRQ=="}, "data_format": {"s": "TkhXQw=="}, "explicit_paddings": {"list": {}}, "dilations": {"list": {"i": ["1", "1", "1", "1"]}}, "use_cudnn_on_gpu": {"b": true}}}, {"name": "FeatureExtractor/MobilenetV1/Conv2d_13_pointwise_2_Conv2d_2_3x3_s2_512/add_fold", "op": "Add", "input": ["FeatureExtractor/MobilenetV1/Conv2d_13_pointwise_2_Conv2d_2_3x3_s2_512/BatchNorm_Fold/bias", "FeatureExtractor/MobilenetV1/Conv2d_13_pointwise_2_Conv2d_2_3x3_s2_512/Conv2D_Fold"], "attr": {"T": {"type": "DT_FLOAT"}}}, {"name": "FeatureExtractor/MobilenetV1/Conv2d_13_pointwise_2_Conv2d_2_3x3_s2_512/Relu6", "op": "Relu6", "input": ["FeatureExtractor/MobilenetV1/Conv2d_13_pointwise_2_Conv2d_2_3x3_s2_512/add_fold"], "attr": {"T": {"type": "DT_FLOAT"}}}, {"name": "FeatureExtractor/MobilenetV1/Conv2d_13_pointwise_2_Conv2d_2_3x3_s2_512/act_quant/FakeQuantWithMinMaxVars", "op": "FakeQuantWithMinMaxVars", "input": ["FeatureExtractor/MobilenetV1/Conv2d_13_pointwise_2_Conv2d_2_3x3_s2_512/Relu6", "FeatureExtractor/MobilenetV1/Conv2d_13_pointwise_2_Conv2d_2_3x3_s2_512/act_quant/min", "FeatureExtractor/MobilenetV1/Conv2d_13_pointwise_2_Conv2d_2_3x3_s2_512/act_quant/max"], "attr": {"narrow_range": {"b": false}, "num_bits": {"i": "8"}}}, {"name": "BoxPredictor_2/Shape", "op": "Shape", "input": ["FeatureExtractor/MobilenetV1/Conv2d_13_pointwise_2_Conv2d_2_3x3_s2_512/act_quant/FakeQuantWithMinMaxVars"], "attr": {"T": {"type": "DT_FLOAT"}, "out_type": {"type": "DT_INT32"}}}, {"name": "FeatureExtractor/MobilenetV1/Conv2d_13_pointwise_1_Conv2d_3_1x1_128/Conv2D_Fold", "op": "Conv2D", "input": ["FeatureExtractor/MobilenetV1/Conv2d_13_pointwise_2_Conv2d_2_3x3_s2_512/act_quant/FakeQuantWithMinMaxVars", "FeatureExtractor/MobilenetV1/Conv2d_13_pointwise_1_Conv2d_3_1x1_128/weights_quant/FakeQuantWithMinMaxVars"], "device": "/device:CPU:0", "attr": {"dilations": {"list": {"i": ["1", "1", "1", "1"]}}, "strides": {"list": {"i": ["1", "1", "1", "1"]}}, "T": {"type": "DT_FLOAT"}, "use_cudnn_on_gpu": {"b": true}, "explicit_paddings": {"list": {}}, "data_format": {"s": "TkhXQw=="}, "padding": {"s": "U0FNRQ=="}}}, {"name": "BoxPredictor_2/BoxEncodingPredictor/BiasAdd", "op": "_FusedConv2D", "input": ["FeatureExtractor/MobilenetV1/Conv2d_13_pointwise_2_Conv2d_2_3x3_s2_512/act_quant/FakeQuantWithMinMaxVars", "BoxPredictor_2/BoxEncodingPredictor/weights_quant/FakeQuantWithMinMaxVars", "BoxPredictor_2/BoxEncodingPredictor/biases"], "device": "/device:CPU:0", "attr": {"dilations": {"list": {"i": ["1", "1", "1", "1"]}}, "epsilon": {"f": 0.0}, "strides": {"list": {"i": ["1", "1", "1", "1"]}}, "T": {"type": "DT_FLOAT"}, "fused_ops": {"list": {"s": ["Qmlhc0FkZA=="]}}, "data_format": {"s": "TkhXQw=="}, "explicit_paddings": {"list": {}}, "num_args": {"i": "1"}, "use_cudnn_on_gpu": {"b": true}, "padding": {"s": "U0FNRQ=="}}}, {"name": "BoxPredictor_2/ClassPredictor/BiasAdd", "op": "_FusedConv2D", "input": ["FeatureExtractor/MobilenetV1/Conv2d_13_pointwise_2_Conv2d_2_3x3_s2_512/act_quant/FakeQuantWithMinMaxVars", "BoxPredictor_2/ClassPredictor/weights_quant/FakeQuantWithMinMaxVars", "BoxPredictor_2/ClassPredictor/biases"], "device": "/device:CPU:0", "attr": {"dilations": {"list": {"i": ["1", "1", "1", "1"]}}, "explicit_paddings": {"list": {}}, "padding": {"s": "U0FNRQ=="}, "fused_ops": {"list": {"s": ["Qmlhc0FkZA=="]}}, "data_format": {"s": "TkhXQw=="}, "T": {"type": "DT_FLOAT"}, "use_cudnn_on_gpu": {"b": true}, "strides": {"list": {"i": ["1", "1", "1", "1"]}}, "epsilon": {"f": 0.0}, "num_args": {"i": "1"}}}, {"name": "BoxPredictor_2/strided_slice", "op": "StridedSlice", "input": ["BoxPredictor_2/Shape", "Preprocessor/map/strided_slice/stack", "Preprocessor/map/strided_slice/stack_1", "Preprocessor/map/strided_slice/stack_1"], "attr": {"T": {"type": "DT_INT32"}, "Index": {"type": "DT_INT32"}, "ellipsis_mask": {"i": "0"}, "begin_mask": {"i": "0"}, "shrink_axis_mask": {"i": "1"}, "new_axis_mask": {"i": "0"}, "end_mask": {"i": "0"}}}, {"name": "FeatureExtractor/MobilenetV1/Conv2d_13_pointwise_1_Conv2d_3_1x1_128/add_fold", "op": "Add", "input": ["FeatureExtractor/MobilenetV1/Conv2d_13_pointwise_1_Conv2d_3_1x1_128/BatchNorm_Fold/bias", "FeatureExtractor/MobilenetV1/Conv2d_13_pointwise_1_Conv2d_3_1x1_128/Conv2D_Fold"], "attr": {"T": {"type": "DT_FLOAT"}}}, {"name": "BoxPredictor_2/BoxEncodingPredictor/act_quant/FakeQuantWithMinMaxVars", "op": "FakeQuantWithMinMaxVars", "input": ["BoxPredictor_2/BoxEncodingPredictor/BiasAdd", "BoxPredictor_2/BoxEncodingPredictor/act_quant/min", "BoxPredictor_2/BoxEncodingPredictor/act_quant/max"], "attr": {"num_bits": {"i": "8"}, "narrow_range": {"b": false}}}, {"name": "BoxPredictor_2/ClassPredictor/act_quant/FakeQuantWithMinMaxVars", "op": "FakeQuantWithMinMaxVars", "input": ["BoxPredictor_2/ClassPredictor/BiasAdd", "BoxPredictor_2/ClassPredictor/act_quant/min", "BoxPredictor_2/ClassPredictor/act_quant/max"], "attr": {"num_bits": {"i": "8"}, "narrow_range": {"b": false}}}, {"name": "BoxPredictor_2/Reshape/shape", "op": "Pack", "input": ["BoxPredictor_2/strided_slice", "BoxPredictor_0/Reshape/shape/1", "Preprocessor/map/TensorArrayUnstack/range/delta", "BoxPredictor_0/Reshape/shape/3"], "attr": {"T": {"type": "DT_INT32"}, "axis": {"i": "0"}, "N": {"i": "4"}}}, {"name": "BoxPredictor_2/Reshape_1/shape", "op": "Pack", "input": ["BoxPredictor_2/strided_slice", "BoxPredictor_0/Reshape/shape/1", "BoxPredictor_0/Reshape/shape/3"], "attr": {"axis": {"i": "0"}, "T": {"type": "DT_INT32"}, "N": {"i": "3"}}}, {"name": "FeatureExtractor/MobilenetV1/Conv2d_13_pointwise_1_Conv2d_3_1x1_128/Relu6", "op": "Relu6", "input": ["FeatureExtractor/MobilenetV1/Conv2d_13_pointwise_1_Conv2d_3_1x1_128/add_fold"], "attr": {"T": {"type": "DT_FLOAT"}}}, {"name": "BoxPredictor_2/Reshape", "op": "Reshape", "input": ["BoxPredictor_2/BoxEncodingPredictor/act_quant/FakeQuantWithMinMaxVars", "BoxPredictor_2/Reshape/shape"], "attr": {"Tshape": {"type": "DT_INT32"}, "T": {"type": "DT_FLOAT"}}}, {"name": "BoxPredictor_2/Reshape_1", "op": "Reshape", "input": ["BoxPredictor_2/ClassPredictor/act_quant/FakeQuantWithMinMaxVars", "BoxPredictor_2/Reshape_1/shape"], "attr": {"T": {"type": "DT_FLOAT"}, "Tshape": {"type": "DT_INT32"}}}, {"name": "FeatureExtractor/MobilenetV1/Conv2d_13_pointwise_1_Conv2d_3_1x1_128/act_quant/FakeQuantWithMinMaxVars", "op": "FakeQuantWithMinMaxVars", "input": ["FeatureExtractor/MobilenetV1/Conv2d_13_pointwise_1_Conv2d_3_1x1_128/Relu6", "FeatureExtractor/MobilenetV1/Conv2d_13_pointwise_1_Conv2d_3_1x1_128/act_quant/min", "FeatureExtractor/MobilenetV1/Conv2d_13_pointwise_1_Conv2d_3_1x1_128/act_quant/max"], "attr": {"num_bits": {"i": "8"}, "narrow_range": {"b": false}}}, {"name": "FeatureExtractor/MobilenetV1/Conv2d_13_pointwise_2_Conv2d_3_3x3_s2_256/Conv2D_Fold", "op": "Conv2D", "input": ["FeatureExtractor/MobilenetV1/Conv2d_13_pointwise_1_Conv2d_3_1x1_128/act_quant/FakeQuantWithMinMaxVars", "FeatureExtractor/MobilenetV1/Conv2d_13_pointwise_2_Conv2d_3_3x3_s2_256/weights_quant/FakeQuantWithMinMaxVars"], "device": "/device:CPU:0", "attr": {"data_format": {"s": "TkhXQw=="}, "use_cudnn_on_gpu": {"b": true}, "padding": {"s": "U0FNRQ=="}, "strides": {"list": {"i": ["1", "2", "2", "1"]}}, "T": {"type": "DT_FLOAT"}, "explicit_paddings": {"list": {}}, "dilations": {"list": {"i": ["1", "1", "1", "1"]}}}}, {"name": "FeatureExtractor/MobilenetV1/Conv2d_13_pointwise_2_Conv2d_3_3x3_s2_256/add_fold", "op": "Add", "input": ["FeatureExtractor/MobilenetV1/Conv2d_13_pointwise_2_Conv2d_3_3x3_s2_256/BatchNorm_Fold/bias", "FeatureExtractor/MobilenetV1/Conv2d_13_pointwise_2_Conv2d_3_3x3_s2_256/Conv2D_Fold"], "attr": {"T": {"type": "DT_FLOAT"}}}, {"name": "FeatureExtractor/MobilenetV1/Conv2d_13_pointwise_2_Conv2d_3_3x3_s2_256/Relu6", "op": "Relu6", "input": ["FeatureExtractor/MobilenetV1/Conv2d_13_pointwise_2_Conv2d_3_3x3_s2_256/add_fold"], "attr": {"T": {"type": "DT_FLOAT"}}}, {"name": "FeatureExtractor/MobilenetV1/Conv2d_13_pointwise_2_Conv2d_3_3x3_s2_256/act_quant/FakeQuantWithMinMaxVars", "op": "FakeQuantWithMinMaxVars", "input": ["FeatureExtractor/MobilenetV1/Conv2d_13_pointwise_2_Conv2d_3_3x3_s2_256/Relu6", "FeatureExtractor/MobilenetV1/Conv2d_13_pointwise_2_Conv2d_3_3x3_s2_256/act_quant/min", "FeatureExtractor/MobilenetV1/Conv2d_13_pointwise_2_Conv2d_3_3x3_s2_256/act_quant/max"], "attr": {"num_bits": {"i": "8"}, "narrow_range": {"b": false}}}, {"name": "BoxPredictor_3/ClassPredictor/BiasAdd", "op": "_FusedConv2D", "input": ["FeatureExtractor/MobilenetV1/Conv2d_13_pointwise_2_Conv2d_3_3x3_s2_256/act_quant/FakeQuantWithMinMaxVars", "BoxPredictor_3/ClassPredictor/weights_quant/FakeQuantWithMinMaxVars", "BoxPredictor_3/ClassPredictor/biases"], "device": "/device:CPU:0", "attr": {"data_format": {"s": "TkhXQw=="}, "epsilon": {"f": 0.0}, "num_args": {"i": "1"}, "T": {"type": "DT_FLOAT"}, "padding": {"s": "U0FNRQ=="}, "use_cudnn_on_gpu": {"b": true}, "explicit_paddings": {"list": {}}, "fused_ops": {"list": {"s": ["Qmlhc0FkZA=="]}}, "dilations": {"list": {"i": ["1", "1", "1", "1"]}}, "strides": {"list": {"i": ["1", "1", "1", "1"]}}}}, {"name": "BoxPredictor_3/Shape", "op": "Shape", "input": ["FeatureExtractor/MobilenetV1/Conv2d_13_pointwise_2_Conv2d_3_3x3_s2_256/act_quant/FakeQuantWithMinMaxVars"], "attr": {"out_type": {"type": "DT_INT32"}, "T": {"type": "DT_FLOAT"}}}, {"name": "FeatureExtractor/MobilenetV1/Conv2d_13_pointwise_1_Conv2d_4_1x1_128/Conv2D_Fold", "op": "Conv2D", "input": ["FeatureExtractor/MobilenetV1/Conv2d_13_pointwise_2_Conv2d_3_3x3_s2_256/act_quant/FakeQuantWithMinMaxVars", "FeatureExtractor/MobilenetV1/Conv2d_13_pointwise_1_Conv2d_4_1x1_128/weights_quant/FakeQuantWithMinMaxVars"], "device": "/device:CPU:0", "attr": {"T": {"type": "DT_FLOAT"}, "strides": {"list": {"i": ["1", "1", "1", "1"]}}, "padding": {"s": "U0FNRQ=="}, "use_cudnn_on_gpu": {"b": true}, "explicit_paddings": {"list": {}}, "data_format": {"s": "TkhXQw=="}, "dilations": {"list": {"i": ["1", "1", "1", "1"]}}}}, {"name": "BoxPredictor_3/BoxEncodingPredictor/BiasAdd", "op": "_FusedConv2D", "input": ["FeatureExtractor/MobilenetV1/Conv2d_13_pointwise_2_Conv2d_3_3x3_s2_256/act_quant/FakeQuantWithMinMaxVars", "BoxPredictor_3/BoxEncodingPredictor/weights_quant/FakeQuantWithMinMaxVars", "BoxPredictor_3/BoxEncodingPredictor/biases"], "device": "/device:CPU:0", "attr": {"dilations": {"list": {"i": ["1", "1", "1", "1"]}}, "data_format": {"s": "TkhXQw=="}, "padding": {"s": "U0FNRQ=="}, "fused_ops": {"list": {"s": ["Qmlhc0FkZA=="]}}, "explicit_paddings": {"list": {}}, "T": {"type": "DT_FLOAT"}, "epsilon": {"f": 0.0}, "use_cudnn_on_gpu": {"b": true}, "strides": {"list": {"i": ["1", "1", "1", "1"]}}, "num_args": {"i": "1"}}}, {"name": "BoxPredictor_3/ClassPredictor/act_quant/FakeQuantWithMinMaxVars", "op": "FakeQuantWithMinMaxVars", "input": ["BoxPredictor_3/ClassPredictor/BiasAdd", "BoxPredictor_3/ClassPredictor/act_quant/min", "BoxPredictor_3/ClassPredictor/act_quant/max"], "attr": {"narrow_range": {"b": false}, "num_bits": {"i": "8"}}}, {"name": "BoxPredictor_3/strided_slice", "op": "StridedSlice", "input": ["BoxPredictor_3/Shape", "Preprocessor/map/strided_slice/stack", "Preprocessor/map/strided_slice/stack_1", "Preprocessor/map/strided_slice/stack_1"], "attr": {"Index": {"type": "DT_INT32"}, "begin_mask": {"i": "0"}, "ellipsis_mask": {"i": "0"}, "new_axis_mask": {"i": "0"}, "T": {"type": "DT_INT32"}, "end_mask": {"i": "0"}, "shrink_axis_mask": {"i": "1"}}}, {"name": "FeatureExtractor/MobilenetV1/Conv2d_13_pointwise_1_Conv2d_4_1x1_128/add_fold", "op": "Add", "input": ["FeatureExtractor/MobilenetV1/Conv2d_13_pointwise_1_Conv2d_4_1x1_128/BatchNorm_Fold/bias", "FeatureExtractor/MobilenetV1/Conv2d_13_pointwise_1_Conv2d_4_1x1_128/Conv2D_Fold"], "attr": {"T": {"type": "DT_FLOAT"}}}, {"name": "BoxPredictor_3/BoxEncodingPredictor/act_quant/FakeQuantWithMinMaxVars", "op": "FakeQuantWithMinMaxVars", "input": ["BoxPredictor_3/BoxEncodingPredictor/BiasAdd", "BoxPredictor_3/BoxEncodingPredictor/act_quant/min", "BoxPredictor_3/BoxEncodingPredictor/act_quant/max"], "attr": {"num_bits": {"i": "8"}, "narrow_range": {"b": false}}}, {"name": "BoxPredictor_3/Reshape/shape", "op": "Pack", "input": ["BoxPredictor_3/strided_slice", "BoxPredictor_0/Reshape/shape/1", "Preprocessor/map/TensorArrayUnstack/range/delta", "BoxPredictor_0/Reshape/shape/3"], "attr": {"T": {"type": "DT_INT32"}, "axis": {"i": "0"}, "N": {"i": "4"}}}, {"name": "BoxPredictor_3/Reshape_1/shape", "op": "Pack", "input": ["BoxPredictor_3/strided_slice", "BoxPredictor_0/Reshape/shape/1", "BoxPredictor_0/Reshape/shape/3"], "attr": {"axis": {"i": "0"}, "N": {"i": "3"}, "T": {"type": "DT_INT32"}}}, {"name": "FeatureExtractor/MobilenetV1/Conv2d_13_pointwise_1_Conv2d_4_1x1_128/Relu6", "op": "Relu6", "input": ["FeatureExtractor/MobilenetV1/Conv2d_13_pointwise_1_Conv2d_4_1x1_128/add_fold"], "attr": {"T": {"type": "DT_FLOAT"}}}, {"name": "BoxPredictor_3/Reshape", "op": "Reshape", "input": ["BoxPredictor_3/BoxEncodingPredictor/act_quant/FakeQuantWithMinMaxVars", "BoxPredictor_3/Reshape/shape"], "attr": {"T": {"type": "DT_FLOAT"}, "Tshape": {"type": "DT_INT32"}}}, {"name": "BoxPredictor_3/Reshape_1", "op": "Reshape", "input": ["BoxPredictor_3/ClassPredictor/act_quant/FakeQuantWithMinMaxVars", "BoxPredictor_3/Reshape_1/shape"], "attr": {"Tshape": {"type": "DT_INT32"}, "T": {"type": "DT_FLOAT"}}}, {"name": "FeatureExtractor/MobilenetV1/Conv2d_13_pointwise_1_Conv2d_4_1x1_128/act_quant/FakeQuantWithMinMaxVars", "op": "FakeQuantWithMinMaxVars", "input": ["FeatureExtractor/MobilenetV1/Conv2d_13_pointwise_1_Conv2d_4_1x1_128/Relu6", "FeatureExtractor/MobilenetV1/Conv2d_13_pointwise_1_Conv2d_4_1x1_128/act_quant/min", "FeatureExtractor/MobilenetV1/Conv2d_13_pointwise_1_Conv2d_4_1x1_128/act_quant/max"], "attr": {"narrow_range": {"b": false}, "num_bits": {"i": "8"}}}, {"name": "FeatureExtractor/MobilenetV1/Conv2d_13_pointwise_2_Conv2d_4_3x3_s2_256/Conv2D_Fold", "op": "Conv2D", "input": ["FeatureExtractor/MobilenetV1/Conv2d_13_pointwise_1_Conv2d_4_1x1_128/act_quant/FakeQuantWithMinMaxVars", "FeatureExtractor/MobilenetV1/Conv2d_13_pointwise_2_Conv2d_4_3x3_s2_256/weights_quant/FakeQuantWithMinMaxVars"], "device": "/device:CPU:0", "attr": {"dilations": {"list": {"i": ["1", "1", "1", "1"]}}, "use_cudnn_on_gpu": {"b": true}, "strides": {"list": {"i": ["1", "2", "2", "1"]}}, "padding": {"s": "U0FNRQ=="}, "explicit_paddings": {"list": {}}, "T": {"type": "DT_FLOAT"}, "data_format": {"s": "TkhXQw=="}}}, {"name": "FeatureExtractor/MobilenetV1/Conv2d_13_pointwise_2_Conv2d_4_3x3_s2_256/add_fold", "op": "Add", "input": ["FeatureExtractor/MobilenetV1/Conv2d_13_pointwise_2_Conv2d_4_3x3_s2_256/BatchNorm_Fold/bias", "FeatureExtractor/MobilenetV1/Conv2d_13_pointwise_2_Conv2d_4_3x3_s2_256/Conv2D_Fold"], "attr": {"T": {"type": "DT_FLOAT"}}}, {"name": "FeatureExtractor/MobilenetV1/Conv2d_13_pointwise_2_Conv2d_4_3x3_s2_256/Relu6", "op": "Relu6", "input": ["FeatureExtractor/MobilenetV1/Conv2d_13_pointwise_2_Conv2d_4_3x3_s2_256/add_fold"], "attr": {"T": {"type": "DT_FLOAT"}}}, {"name": "FeatureExtractor/MobilenetV1/Conv2d_13_pointwise_2_Conv2d_4_3x3_s2_256/act_quant/FakeQuantWithMinMaxVars", "op": "FakeQuantWithMinMaxVars", "input": ["FeatureExtractor/MobilenetV1/Conv2d_13_pointwise_2_Conv2d_4_3x3_s2_256/Relu6", "FeatureExtractor/MobilenetV1/Conv2d_13_pointwise_2_Conv2d_4_3x3_s2_256/act_quant/min", "FeatureExtractor/MobilenetV1/Conv2d_13_pointwise_2_Conv2d_4_3x3_s2_256/act_quant/max"], "attr": {"num_bits": {"i": "8"}, "narrow_range": {"b": false}}}, {"name": "BoxPredictor_4/ClassPredictor/BiasAdd", "op": "_FusedConv2D", "input": ["FeatureExtractor/MobilenetV1/Conv2d_13_pointwise_2_Conv2d_4_3x3_s2_256/act_quant/FakeQuantWithMinMaxVars", "BoxPredictor_4/ClassPredictor/weights_quant/FakeQuantWithMinMaxVars", "BoxPredictor_4/ClassPredictor/biases"], "device": "/device:CPU:0", "attr": {"epsilon": {"f": 0.0}, "num_args": {"i": "1"}, "padding": {"s": "U0FNRQ=="}, "dilations": {"list": {"i": ["1", "1", "1", "1"]}}, "data_format": {"s": "TkhXQw=="}, "strides": {"list": {"i": ["1", "1", "1", "1"]}}, "T": {"type": "DT_FLOAT"}, "fused_ops": {"list": {"s": ["Qmlhc0FkZA=="]}}, "explicit_paddings": {"list": {}}, "use_cudnn_on_gpu": {"b": true}}}, {"name": "BoxPredictor_4/BoxEncodingPredictor/BiasAdd", "op": "_FusedConv2D", "input": ["FeatureExtractor/MobilenetV1/Conv2d_13_pointwise_2_Conv2d_4_3x3_s2_256/act_quant/FakeQuantWithMinMaxVars", "BoxPredictor_4/BoxEncodingPredictor/weights_quant/FakeQuantWithMinMaxVars", "BoxPredictor_4/BoxEncodingPredictor/biases"], "device": "/device:CPU:0", "attr": {"epsilon": {"f": 0.0}, "num_args": {"i": "1"}, "data_format": {"s": "TkhXQw=="}, "T": {"type": "DT_FLOAT"}, "dilations": {"list": {"i": ["1", "1", "1", "1"]}}, "padding": {"s": "U0FNRQ=="}, "strides": {"list": {"i": ["1", "1", "1", "1"]}}, "fused_ops": {"list": {"s": ["Qmlhc0FkZA=="]}}, "explicit_paddings": {"list": {}}, "use_cudnn_on_gpu": {"b": true}}}, {"name": "BoxPredictor_4/Shape", "op": "Shape", "input": ["FeatureExtractor/MobilenetV1/Conv2d_13_pointwise_2_Conv2d_4_3x3_s2_256/act_quant/FakeQuantWithMinMaxVars"], "attr": {"T": {"type": "DT_FLOAT"}, "out_type": {"type": "DT_INT32"}}}, {"name": "FeatureExtractor/MobilenetV1/Conv2d_13_pointwise_1_Conv2d_5_1x1_64/Conv2D_Fold", "op": "Conv2D", "input": ["FeatureExtractor/MobilenetV1/Conv2d_13_pointwise_2_Conv2d_4_3x3_s2_256/act_quant/FakeQuantWithMinMaxVars", "FeatureExtractor/MobilenetV1/Conv2d_13_pointwise_1_Conv2d_5_1x1_64/weights_quant/FakeQuantWithMinMaxVars"], "device": "/device:CPU:0", "attr": {"data_format": {"s": "TkhXQw=="}, "T": {"type": "DT_FLOAT"}, "padding": {"s": "U0FNRQ=="}, "use_cudnn_on_gpu": {"b": true}, "explicit_paddings": {"list": {}}, "strides": {"list": {"i": ["1", "1", "1", "1"]}}, "dilations": {"list": {"i": ["1", "1", "1", "1"]}}}}, {"name": "BoxPredictor_4/ClassPredictor/act_quant/FakeQuantWithMinMaxVars", "op": "FakeQuantWithMinMaxVars", "input": ["BoxPredictor_4/ClassPredictor/BiasAdd", "BoxPredictor_4/ClassPredictor/act_quant/min", "BoxPredictor_4/ClassPredictor/act_quant/max"], "attr": {"narrow_range": {"b": false}, "num_bits": {"i": "8"}}}, {"name": "BoxPredictor_4/BoxEncodingPredictor/act_quant/FakeQuantWithMinMaxVars", "op": "FakeQuantWithMinMaxVars", "input": ["BoxPredictor_4/BoxEncodingPredictor/BiasAdd", "BoxPredictor_4/BoxEncodingPredictor/act_quant/min", "BoxPredictor_4/BoxEncodingPredictor/act_quant/max"], "attr": {"num_bits": {"i": "8"}, "narrow_range": {"b": false}}}, {"name": "BoxPredictor_4/strided_slice", "op": "StridedSlice", "input": ["BoxPredictor_4/Shape", "Preprocessor/map/strided_slice/stack", "Preprocessor/map/strided_slice/stack_1", "Preprocessor/map/strided_slice/stack_1"], "attr": {"begin_mask": {"i": "0"}, "new_axis_mask": {"i": "0"}, "T": {"type": "DT_INT32"}, "end_mask": {"i": "0"}, "Index": {"type": "DT_INT32"}, "shrink_axis_mask": {"i": "1"}, "ellipsis_mask": {"i": "0"}}}, {"name": "FeatureExtractor/MobilenetV1/Conv2d_13_pointwise_1_Conv2d_5_1x1_64/add_fold", "op": "Add", "input": ["FeatureExtractor/MobilenetV1/Conv2d_13_pointwise_1_Conv2d_5_1x1_64/BatchNorm_Fold/bias", "FeatureExtractor/MobilenetV1/Conv2d_13_pointwise_1_Conv2d_5_1x1_64/Conv2D_Fold"], "attr": {"T": {"type": "DT_FLOAT"}}}, {"name": "BoxPredictor_4/Reshape/shape", "op": "Pack", "input": ["BoxPredictor_4/strided_slice", "BoxPredictor_0/Reshape/shape/1", "Preprocessor/map/TensorArrayUnstack/range/delta", "BoxPredictor_0/Reshape/shape/3"], "attr": {"T": {"type": "DT_INT32"}, "axis": {"i": "0"}, "N": {"i": "4"}}}, {"name": "BoxPredictor_4/Reshape_1/shape", "op": "Pack", "input": ["BoxPredictor_4/strided_slice", "BoxPredictor_0/Reshape/shape/1", "BoxPredictor_0/Reshape/shape/3"], "attr": {"T": {"type": "DT_INT32"}, "N": {"i": "3"}, "axis": {"i": "0"}}}, {"name": "FeatureExtractor/MobilenetV1/Conv2d_13_pointwise_1_Conv2d_5_1x1_64/Relu6", "op": "Relu6", "input": ["FeatureExtractor/MobilenetV1/Conv2d_13_pointwise_1_Conv2d_5_1x1_64/add_fold"], "attr": {"T": {"type": "DT_FLOAT"}}}, {"name": "BoxPredictor_4/Reshape", "op": "Reshape", "input": ["BoxPredictor_4/BoxEncodingPredictor/act_quant/FakeQuantWithMinMaxVars", "BoxPredictor_4/Reshape/shape"], "attr": {"Tshape": {"type": "DT_INT32"}, "T": {"type": "DT_FLOAT"}}}, {"name": "BoxPredictor_4/Reshape_1", "op": "Reshape", "input": ["BoxPredictor_4/ClassPredictor/act_quant/FakeQuantWithMinMaxVars", "BoxPredictor_4/Reshape_1/shape"], "attr": {"T": {"type": "DT_FLOAT"}, "Tshape": {"type": "DT_INT32"}}}, {"name": "FeatureExtractor/MobilenetV1/Conv2d_13_pointwise_1_Conv2d_5_1x1_64/act_quant/FakeQuantWithMinMaxVars", "op": "FakeQuantWithMinMaxVars", "input": ["FeatureExtractor/MobilenetV1/Conv2d_13_pointwise_1_Conv2d_5_1x1_64/Relu6", "FeatureExtractor/MobilenetV1/Conv2d_13_pointwise_1_Conv2d_5_1x1_64/act_quant/min", "FeatureExtractor/MobilenetV1/Conv2d_13_pointwise_1_Conv2d_5_1x1_64/act_quant/max"], "attr": {"narrow_range": {"b": false}, "num_bits": {"i": "8"}}}, {"name": "FeatureExtractor/MobilenetV1/Conv2d_13_pointwise_2_Conv2d_5_3x3_s2_128/Conv2D_Fold", "op": "Conv2D", "input": ["FeatureExtractor/MobilenetV1/Conv2d_13_pointwise_1_Conv2d_5_1x1_64/act_quant/FakeQuantWithMinMaxVars", "FeatureExtractor/MobilenetV1/Conv2d_13_pointwise_2_Conv2d_5_3x3_s2_128/weights_quant/FakeQuantWithMinMaxVars"], "device": "/device:CPU:0", "attr": {"T": {"type": "DT_FLOAT"}, "explicit_paddings": {"list": {}}, "use_cudnn_on_gpu": {"b": true}, "data_format": {"s": "TkhXQw=="}, "padding": {"s": "U0FNRQ=="}, "dilations": {"list": {"i": ["1", "1", "1", "1"]}}, "strides": {"list": {"i": ["1", "2", "2", "1"]}}}}, {"name": "FeatureExtractor/MobilenetV1/Conv2d_13_pointwise_2_Conv2d_5_3x3_s2_128/add_fold", "op": "Add", "input": ["FeatureExtractor/MobilenetV1/Conv2d_13_pointwise_2_Conv2d_5_3x3_s2_128/BatchNorm_Fold/bias", "FeatureExtractor/MobilenetV1/Conv2d_13_pointwise_2_Conv2d_5_3x3_s2_128/Conv2D_Fold"], "attr": {"T": {"type": "DT_FLOAT"}}}, {"name": "FeatureExtractor/MobilenetV1/Conv2d_13_pointwise_2_Conv2d_5_3x3_s2_128/Relu6", "op": "Relu6", "input": ["FeatureExtractor/MobilenetV1/Conv2d_13_pointwise_2_Conv2d_5_3x3_s2_128/add_fold"], "attr": {"T": {"type": "DT_FLOAT"}}}, {"name": "FeatureExtractor/MobilenetV1/Conv2d_13_pointwise_2_Conv2d_5_3x3_s2_128/act_quant/FakeQuantWithMinMaxVars", "op": "FakeQuantWithMinMaxVars", "input": ["FeatureExtractor/MobilenetV1/Conv2d_13_pointwise_2_Conv2d_5_3x3_s2_128/Relu6", "FeatureExtractor/MobilenetV1/Conv2d_13_pointwise_2_Conv2d_5_3x3_s2_128/act_quant/min", "FeatureExtractor/MobilenetV1/Conv2d_13_pointwise_2_Conv2d_5_3x3_s2_128/act_quant/max"], "attr": {"num_bits": {"i": "8"}, "narrow_range": {"b": false}}}, {"name": "BoxPredictor_5/Shape", "op": "Shape", "input": ["FeatureExtractor/MobilenetV1/Conv2d_13_pointwise_2_Conv2d_5_3x3_s2_128/act_quant/FakeQuantWithMinMaxVars"], "attr": {"out_type": {"type": "DT_INT32"}, "T": {"type": "DT_FLOAT"}}}, {"name": "BoxPredictor_5/BoxEncodingPredictor/BiasAdd", "op": "_FusedConv2D", "input": ["FeatureExtractor/MobilenetV1/Conv2d_13_pointwise_2_Conv2d_5_3x3_s2_128/act_quant/FakeQuantWithMinMaxVars", "BoxPredictor_5/BoxEncodingPredictor/weights_quant/FakeQuantWithMinMaxVars", "BoxPredictor_5/BoxEncodingPredictor/biases"], "device": "/device:CPU:0", "attr": {"data_format": {"s": "TkhXQw=="}, "dilations": {"list": {"i": ["1", "1", "1", "1"]}}, "T": {"type": "DT_FLOAT"}, "use_cudnn_on_gpu": {"b": true}, "padding": {"s": "U0FNRQ=="}, "fused_ops": {"list": {"s": ["Qmlhc0FkZA=="]}}, "explicit_paddings": {"list": {}}, "strides": {"list": {"i": ["1", "1", "1", "1"]}}, "num_args": {"i": "1"}, "epsilon": {"f": 0.0}}}, {"name": "BoxPredictor_5/ClassPredictor/BiasAdd", "op": "_FusedConv2D", "input": ["FeatureExtractor/MobilenetV1/Conv2d_13_pointwise_2_Conv2d_5_3x3_s2_128/act_quant/FakeQuantWithMinMaxVars", "BoxPredictor_5/ClassPredictor/weights_quant/FakeQuantWithMinMaxVars", "BoxPredictor_5/ClassPredictor/biases"], "device": "/device:CPU:0", "attr": {"T": {"type": "DT_FLOAT"}, "use_cudnn_on_gpu": {"b": true}, "dilations": {"list": {"i": ["1", "1", "1", "1"]}}, "epsilon": {"f": 0.0}, "strides": {"list": {"i": ["1", "1", "1", "1"]}}, "padding": {"s": "U0FNRQ=="}, "fused_ops": {"list": {"s": ["Qmlhc0FkZA=="]}}, "data_format": {"s": "TkhXQw=="}, "num_args": {"i": "1"}, "explicit_paddings": {"list": {}}}}, {"name": "BoxPredictor_5/strided_slice", "op": "StridedSlice", "input": ["BoxPredictor_5/Shape", "Preprocessor/map/strided_slice/stack", "Preprocessor/map/strided_slice/stack_1", "Preprocessor/map/strided_slice/stack_1"], "attr": {"shrink_axis_mask": {"i": "1"}, "ellipsis_mask": {"i": "0"}, "end_mask": {"i": "0"}, "T": {"type": "DT_INT32"}, "Index": {"type": "DT_INT32"}, "begin_mask": {"i": "0"}, "new_axis_mask": {"i": "0"}}}, {"name": "BoxPredictor_5/BoxEncodingPredictor/act_quant/FakeQuantWithMinMaxVars", "op": "FakeQuantWithMinMaxVars", "input": ["BoxPredictor_5/BoxEncodingPredictor/BiasAdd", "BoxPredictor_5/BoxEncodingPredictor/act_quant/min", "BoxPredictor_5/BoxEncodingPredictor/act_quant/max"], "attr": {"num_bits": {"i": "8"}, "narrow_range": {"b": false}}}, {"name": "BoxPredictor_5/ClassPredictor/act_quant/FakeQuantWithMinMaxVars", "op": "FakeQuantWithMinMaxVars", "input": ["BoxPredictor_5/ClassPredictor/BiasAdd", "BoxPredictor_5/ClassPredictor/act_quant/min", "BoxPredictor_5/ClassPredictor/act_quant/max"], "attr": {"narrow_range": {"b": false}, "num_bits": {"i": "8"}}}, {"name": "BoxPredictor_5/Reshape/shape", "op": "Pack", "input": ["BoxPredictor_5/strided_slice", "BoxPredictor_0/Reshape/shape/1", "Preprocessor/map/TensorArrayUnstack/range/delta", "BoxPredictor_0/Reshape/shape/3"], "attr": {"N": {"i": "4"}, "T": {"type": "DT_INT32"}, "axis": {"i": "0"}}}, {"name": "BoxPredictor_5/Reshape_1/shape", "op": "Pack", "input": ["BoxPredictor_5/strided_slice", "BoxPredictor_0/Reshape/shape/1", "BoxPredictor_0/Reshape/shape/3"], "attr": {"N": {"i": "3"}, "axis": {"i": "0"}, "T": {"type": "DT_INT32"}}}, {"name": "BoxPredictor_5/Reshape", "op": "Reshape", "input": ["BoxPredictor_5/BoxEncodingPredictor/act_quant/FakeQuantWithMinMaxVars", "BoxPredictor_5/Reshape/shape"], "attr": {"T": {"type": "DT_FLOAT"}, "Tshape": {"type": "DT_INT32"}}}, {"name": "BoxPredictor_5/Reshape_1", "op": "Reshape", "input": ["BoxPredictor_5/ClassPredictor/act_quant/FakeQuantWithMinMaxVars", "BoxPredictor_5/Reshape_1/shape"], "attr": {"T": {"type": "DT_FLOAT"}, "Tshape": {"type": "DT_INT32"}}}, {"name": "concat", "op": "ConcatV2", "input": ["BoxPredictor_0/Reshape", "BoxPredictor_1/Reshape", "BoxPredictor_2/Reshape", "BoxPredictor_3/Reshape", "BoxPredictor_4/Reshape", "BoxPredictor_5/Reshape", "Preprocessor/map/TensorArrayUnstack/range/delta"], "attr": {"T": {"type": "DT_FLOAT"}, "Tidx": {"type": "DT_INT32"}, "N": {"i": "6"}}}, {"name": "concat_1", "op": "ConcatV2", "input": ["BoxPredictor_0/Reshape_1", "BoxPredictor_1/Reshape_1", "BoxPredictor_2/Reshape_1", "BoxPredictor_3/Reshape_1", "BoxPredictor_4/Reshape_1", "BoxPredictor_5/Reshape_1", "Preprocessor/map/TensorArrayUnstack/range/delta"], "attr": {"T": {"type": "DT_FLOAT"}, "Tidx": {"type": "DT_INT32"}, "N": {"i": "6"}}}, {"name": "Squeeze", "op": "Squeeze", "input": ["concat"], "attr": {"T": {"type": "DT_FLOAT"}, "squeeze_dims": {"list": {"i": ["2"]}}}}, {"name": "Postprocessor/convert_scores", "op": "Sigmoid", "input": ["concat_1"], "attr": {"T": {"type": "DT_FLOAT"}}}, {"name": "Postprocessor/Shape", "op": "Shape", "input": ["Squeeze"], "attr": {"out_type": {"type": "DT_INT32"}, "T": {"type": "DT_FLOAT"}}}, {"name": "Postprocessor/Reshape_1", "op": "Reshape", "input": ["Squeeze", "Postprocessor/Reshape/shape"], "attr": {"Tshape": {"type": "DT_INT32"}, "T": {"type": "DT_FLOAT"}}}, {"name": "Postprocessor/Slice", "op": "Slice", "input": ["Postprocessor/convert_scores", "Postprocessor/Slice/begin", "Postprocessor/Slice/size"], "attr": {"Index": {"type": "DT_INT32"}, "T": {"type": "DT_FLOAT"}}}, {"name": "Postprocessor/strided_slice", "op": "StridedSlice", "input": ["Postprocessor/Shape", "Preprocessor/map/strided_slice/stack", "Preprocessor/map/strided_slice/stack_1", "Preprocessor/map/strided_slice/stack_1"], "attr": {"begin_mask": {"i": "0"}, "T": {"type": "DT_INT32"}, "ellipsis_mask": {"i": "0"}, "new_axis_mask": {"i": "0"}, "end_mask": {"i": "0"}, "Index": {"type": "DT_INT32"}, "shrink_axis_mask": {"i": "1"}}}, {"name": "Postprocessor/strided_slice_1", "op": "StridedSlice", "input": ["Postprocessor/Shape", "Preprocessor/map/strided_slice/stack_1", "Postprocessor/strided_slice_1/stack_1", "Preprocessor/map/strided_slice/stack_1"], "attr": {"begin_mask": {"i": "0"}, "shrink_axis_mask": {"i": "1"}, "T": {"type": "DT_INT32"}, "ellipsis_mask": {"i": "0"}, "new_axis_mask": {"i": "0"}, "end_mask": {"i": "0"}, "Index": {"type": "DT_INT32"}}}, {"name": "Postprocessor/Decode/transpose", "op": "Transpose", "input": ["Postprocessor/Reshape_1", "Postprocessor/Decode/get_center_coordinates_and_sizes/transpose/perm"], "attr": {"Tperm": {"type": "DT_INT32"}, "T": {"type": "DT_FLOAT"}}}, {"name": "Postprocessor/Tile/multiples", "op": "Pack", "input": ["Postprocessor/strided_slice", "Preprocessor/map/TensorArrayUnstack/range/delta", "Preprocessor/map/TensorArrayUnstack/range/delta"], "attr": {"N": {"i": "3"}, "T": {"type": "DT_INT32"}, "axis": {"i": "0"}}}, {"name": "Postprocessor/stack", "op": "Pack", "input": ["Postprocessor/strided_slice", "Postprocessor/strided_slice_1", "BoxPredictor_0/Reshape/shape/3"], "attr": {"T": {"type": "DT_INT32"}, "axis": {"i": "0"}, "N": {"i": "3"}}}, {"name": "Postprocessor/Decode/unstack", "op": "Unpack", "input": ["Postprocessor/Decode/transpose"], "attr": {"T": {"type": "DT_FLOAT"}, "axis": {"i": "0"}, "num": {"i": "4"}}}, {"name": "Postprocessor/Tile", "op": "Tile", "input": ["Postprocessor/ExpandDims", "Postprocessor/Tile/multiples"], "attr": {"Tmultiples": {"type": "DT_INT32"}, "T": {"type": "DT_FLOAT"}}}, {"name": "Postprocessor/Decode/truediv", "op": "Mul", "input": ["ConstantFolding/Postprocessor/Decode/truediv_recip", "Postprocessor/Decode/unstack"], "attr": {"T": {"type": "DT_FLOAT"}}}, {"name": "Postprocessor/Decode/truediv_1", "op": "Mul", "input": ["ConstantFolding/Postprocessor/Decode/truediv_recip", "Postprocessor/Decode/unstack:1"], "attr": {"T": {"type": "DT_FLOAT"}}}, {"name": "Postprocessor/Decode/truediv_2", "op": "Mul", "input": ["ConstantFolding/Postprocessor/Decode/truediv_2_recip", "Postprocessor/Decode/unstack:2"], "attr": {"T": {"type": "DT_FLOAT"}}}, {"name": "Postprocessor/Decode/truediv_3", "op": "Mul", "input": ["ConstantFolding/Postprocessor/Decode/truediv_2_recip", "Postprocessor/Decode/unstack:3"], "attr": {"T": {"type": "DT_FLOAT"}}}, {"name": "Postprocessor/Reshape", "op": "Reshape", "input": ["Postprocessor/Tile", "Postprocessor/Reshape/shape"], "attr": {"T": {"type": "DT_FLOAT"}, "Tshape": {"type": "DT_INT32"}}}, {"name": "Postprocessor/Decode/Exp_1", "op": "Exp", "input": ["Postprocessor/Decode/truediv_2"], "attr": {"T": {"type": "DT_FLOAT"}}}, {"name": "Postprocessor/Decode/Exp", "op": "Exp", "input": ["Postprocessor/Decode/truediv_3"], "attr": {"T": {"type": "DT_FLOAT"}}}, {"name": "Postprocessor/Decode/get_center_coordinates_and_sizes/transpose", "op": "Transpose", "input": ["Postprocessor/Reshape", "Postprocessor/Decode/get_center_coordinates_and_sizes/transpose/perm"], "attr": {"T": {"type": "DT_FLOAT"}, "Tperm": {"type": "DT_INT32"}}}, {"name": "Postprocessor/Decode/get_center_coordinates_and_sizes/unstack", "op": "Unpack", "input": ["Postprocessor/Decode/get_center_coordinates_and_sizes/transpose"], "attr": {"T": {"type": "DT_FLOAT"}, "num": {"i": "4"}, "axis": {"i": "0"}}}, {"name": "Postprocessor/Decode/get_center_coordinates_and_sizes/sub_1", "op": "Sub", "input": ["Postprocessor/Decode/get_center_coordinates_and_sizes/unstack:2", "Postprocessor/Decode/get_center_coordinates_and_sizes/unstack"], "attr": {"T": {"type": "DT_FLOAT"}}}, {"name": "Postprocessor/Decode/get_center_coordinates_and_sizes/sub", "op": "Sub", "input": ["Postprocessor/Decode/get_center_coordinates_and_sizes/unstack:3", "Postprocessor/Decode/get_center_coordinates_and_sizes/unstack:1"], "attr": {"T": {"type": "DT_FLOAT"}}}, {"name": "Postprocessor/Decode/get_center_coordinates_and_sizes/truediv", "op": "Mul", "input": ["ConstantFolding/Postprocessor/Decode/get_center_coordinates_and_sizes/truediv_recip", "Postprocessor/Decode/get_center_coordinates_and_sizes/sub_1"], "attr": {"T": {"type": "DT_FLOAT"}}}, {"name": "Postprocessor/Decode/mul_2", "op": "Mul", "input": ["Postprocessor/Decode/get_center_coordinates_and_sizes/sub_1", "Postprocessor/Decode/truediv"], "attr": {"T": {"type": "DT_FLOAT"}}}, {"name": "Postprocessor/Decode/get_center_coordinates_and_sizes/truediv_1", "op": "Mul", "input": ["ConstantFolding/Postprocessor/Decode/get_center_coordinates_and_sizes/truediv_recip", "Postprocessor/Decode/get_center_coordinates_and_sizes/sub"], "attr": {"T": {"type": "DT_FLOAT"}}}, {"name": "Postprocessor/Decode/mul_3", "op": "Mul", "input": ["Postprocessor/Decode/get_center_coordinates_and_sizes/sub", "Postprocessor/Decode/truediv_1"], "attr": {"T": {"type": "DT_FLOAT"}}}, {"name": "Postprocessor/Decode/get_center_coordinates_and_sizes/add", "op": "AddV2", "input": ["Postprocessor/Decode/get_center_coordinates_and_sizes/truediv", "Postprocessor/Decode/get_center_coordinates_and_sizes/unstack"], "attr": {"T": {"type": "DT_FLOAT"}}}, {"name": "Postprocessor/Decode/truediv_4", "op": "Mul", "input": ["Postprocessor/Decode/Exp_1", "Postprocessor/Decode/get_center_coordinates_and_sizes/truediv"], "attr": {"T": {"type": "DT_FLOAT"}}}, {"name": "Postprocessor/Decode/get_center_coordinates_and_sizes/add_1", "op": "AddV2", "input": ["Postprocessor/Decode/get_center_coordinates_and_sizes/truediv_1", "Postprocessor/Decode/get_center_coordinates_and_sizes/unstack:1"], "attr": {"T": {"type": "DT_FLOAT"}}}, {"name": "Postprocessor/Decode/truediv_5", "op": "Mul", "input": ["Postprocessor/Decode/Exp", "Postprocessor/Decode/get_center_coordinates_and_sizes/truediv_1"], "attr": {"T": {"type": "DT_FLOAT"}}}, {"name": "Postprocessor/Decode/add", "op": "AddV2", "input": ["Postprocessor/Decode/get_center_coordinates_and_sizes/add", "Postprocessor/Decode/mul_2"], "attr": {"T": {"type": "DT_FLOAT"}}}, {"name": "Postprocessor/Decode/add_1", "op": "AddV2", "input": ["Postprocessor/Decode/get_center_coordinates_and_sizes/add_1", "Postprocessor/Decode/mul_3"], "attr": {"T": {"type": "DT_FLOAT"}}}, {"name": "Postprocessor/Decode/sub", "op": "Sub", "input": ["Postprocessor/Decode/add", "Postprocessor/Decode/truediv_4"], "attr": {"T": {"type": "DT_FLOAT"}}}, {"name": "Postprocessor/Decode/add_2", "op": "AddV2", "input": ["Postprocessor/Decode/add", "Postprocessor/Decode/truediv_4"], "attr": {"T": {"type": "DT_FLOAT"}}}, {"name": "Postprocessor/Decode/sub_1", "op": "Sub", "input": ["Postprocessor/Decode/add_1", "Postprocessor/Decode/truediv_5"], "attr": {"T": {"type": "DT_FLOAT"}}}, {"name": "Postprocessor/Decode/add_3", "op": "AddV2", "input": ["Postprocessor/Decode/add_1", "Postprocessor/Decode/truediv_5"], "attr": {"T": {"type": "DT_FLOAT"}}}, {"name": "Postprocessor/Decode/stack", "op": "Pack", "input": ["Postprocessor/Decode/sub", "Postprocessor/Decode/sub_1", "Postprocessor/Decode/add_2", "Postprocessor/Decode/add_3"], "attr": {"N": {"i": "4"}, "T": {"type": "DT_FLOAT"}, "axis": {"i": "0"}}}, {"name": "Postprocessor/Decode/transpose_1", "op": "Transpose", "input": ["Postprocessor/Decode/stack", "Postprocessor/Decode/get_center_coordinates_and_sizes/transpose/perm"], "attr": {"Tperm": {"type": "DT_INT32"}, "T": {"type": "DT_FLOAT"}}}, {"name": "Postprocessor/Reshape_2", "op": "Reshape", "input": ["Postprocessor/Decode/transpose_1", "Postprocessor/stack"], "attr": {"T": {"type": "DT_FLOAT"}, "Tshape": {"type": "DT_INT32"}}}, {"name": "Postprocessor/ExpandDims_1", "op": "ExpandDims", "input": ["Postprocessor/Reshape_2", "Postprocessor/ExpandDims_1/dim"], "attr": {"Tdim": {"type": "DT_INT32"}, "T": {"type": "DT_FLOAT"}}}], "versions": {}}, "weightsManifest": [{"paths": ["group1-shard1of2.bin", "group1-shard2of2.bin"], "weights": [{"name": "Preprocessor/mul/x", "shape": [], "dtype": "float32", "quantization": {"min": 0.007843137718737125, "scale": 1.0, "dtype": "uint8"}}, {"name": "Preprocessor/sub/y", "shape": [], "dtype": "float32", "quantization": {"min": 1.0, "scale": 1.0, "dtype": "uint8"}}, {"name": "Preprocessor/map/strided_slice/stack", "shape": [1], "dtype": "int32"}, {"name": "Preprocessor/map/strided_slice/stack_1", "shape": [1], "dtype": "int32"}, {"name": "Preprocessor/map/TensorArrayUnstack/range/start", "shape": [], "dtype": "int32"}, {"name": "Preprocessor/map/TensorArrayUnstack/range/delta", "shape": [], "dtype": "int32"}, {"name": "BoxPredictor_4/ClassPredictor/act_quant/max", "shape": [], "dtype": "float32", "quantization": {"min": 1.116416335105896, "scale": 1.0, "dtype": "uint8"}}, {"name": "BoxPredictor_3/BoxEncodingPredictor/act_quant/min", "shape": [], "dtype": "float32", "quantization": {"min": -3.6889734268188477, "scale": 1.0, "dtype": "uint8"}}, {"name": "BoxPredictor_5/BoxEncodingPredictor/act_quant/min", "shape": [], "dtype": "float32", "quantization": {"min": -3.095762014389038, "scale": 1.0, "dtype": "uint8"}}, {"name": "BoxPredictor_5/BoxEncodingPredictor/act_quant/max", "shape": [], "dtype": "float32", "quantization": {"min": 1.9471608400344849, "scale": 1.0, "dtype": "uint8"}}, {"name": "FeatureExtractor/MobilenetV1/MobilenetV1/Conv2d_11_pointwise/weights_quant/FakeQuantWithMinMaxVars", "shape": [1, 1, 512, 512], "dtype": "float32", "quantization": {"min": -0.18623638258260838, "scale": 0.0017569470054963055, "dtype": "uint8"}}, {"name": "FeatureExtractor/MobilenetV1/MobilenetV1/Conv2d_11_pointwise/act_quant/min", "shape": [], "dtype": "float32", "quantization": {"min": 0.0, "scale": 1.0, "dtype": "uint8"}}, {"name": "BoxPredictor_3/BoxEncodingPredictor/act_quant/max", "shape": [], "dtype": "float32", "quantization": {"min": 3.8295156955718994, "scale": 1.0, "dtype": "uint8"}}, {"name": "FeatureExtractor/MobilenetV1/MobilenetV1/Conv2d_11_pointwise/act_quant/max", "shape": [], "dtype": "float32", "quantization": {"min": 6.000056743621826, "scale": 1.0, "dtype": "uint8"}}, {"name": "FeatureExtractor/MobilenetV1/MobilenetV1/Conv2d_12_depthwise/weights_quant/FakeQuantWithMinMaxVars", "shape": [3, 3, 512, 1], "dtype": "float32", "quantization": {"min": -2.155357956418804, "scale": 0.01781287567288268, "dtype": "uint8"}}, {"name": "FeatureExtractor/MobilenetV1/MobilenetV1/Conv2d_12_pointwise/weights_quant/FakeQuantWithMinMaxVars", "shape": [1, 1, 512, 1024], "dtype": "float32", "quantization": {"min": -0.18844225126154282, "scale": 0.0015703520938461903, "dtype": "uint8"}}, {"name": "BoxPredictor_3/ClassPredictor/weights_quant/FakeQuantWithMinMaxVars", "shape": [1, 1, 256, 24], "dtype": "float32", "quantization": {"min": -0.2022702544927597, "scale": 0.0016997500377542833, "dtype": "uint8"}}, {"name": "BoxPredictor_3/ClassPredictor/act_quant/min", "shape": [], "dtype": "float32", "quantization": {"min": -5.636044502258301, "scale": 1.0, "dtype": "uint8"}}, {"name": "FeatureExtractor/MobilenetV1/MobilenetV1/Conv2d_13_depthwise/weights_quant/FakeQuantWithMinMaxVars", "shape": [3, 3, 1024, 1], "dtype": "float32", "quantization": {"min": -2.3236354098600502, "scale": 0.01844155087190516, "dtype": "uint8"}}, {"name": "BoxPredictor_4/ClassPredictor/weights_quant/FakeQuantWithMinMaxVars", "shape": [1, 1, 256, 24], "dtype": "float32", "quantization": {"min": -0.093669057710498, "scale": 0.000883670355759415, "dtype": "uint8"}}, {"name": "BoxPredictor_3/ClassPredictor/act_quant/max", "shape": [], "dtype": "float32", "quantization": {"min": 2.4037251472473145, "scale": 1.0, "dtype": "uint8"}}, {"name": "FeatureExtractor/MobilenetV1/MobilenetV1/Conv2d_13_pointwise/weights_quant/FakeQuantWithMinMaxVars", "shape": [1, 1, 1024, 1024], "dtype": "float32", "quantization": {"min": -0.16984662214914956, "scale": 0.0012488722216849233, "dtype": "uint8"}}, {"name": "FeatureExtractor/MobilenetV1/MobilenetV1/Conv2d_13_pointwise/act_quant/max", "shape": [], "dtype": "float32", "quantization": {"min": 5.981278419494629, "scale": 1.0, "dtype": "uint8"}}, {"name": "FeatureExtractor/MobilenetV1/Conv2d_13_pointwise_1_Conv2d_2_1x1_256/weights_quant/FakeQuantWithMinMaxVars", "shape": [1, 1, 1024, 256], "dtype": "float32", "quantization": {"min": -0.1443675398826599, "scale": 0.0012131726040559656, "dtype": "uint8"}}, {"name": "FeatureExtractor/MobilenetV1/Conv2d_13_pointwise_1_Conv2d_2_1x1_256/act_quant/min", "shape": [], "dtype": "float32", "quantization": {"min": -5.865056991577148, "scale": 1.0, "dtype": "uint8"}}, {"name": "BoxPredictor_4/ClassPredictor/act_quant/min", "shape": [], "dtype": "float32", "quantization": {"min": -4.969730377197266, "scale": 1.0, "dtype": "uint8"}}, {"name": "FeatureExtractor/MobilenetV1/Conv2d_13_pointwise_1_Conv2d_2_1x1_256/act_quant/max", "shape": [], "dtype": "float32", "quantization": {"min": 6.461976051330566, "scale": 1.0, "dtype": "uint8"}}, {"name": "BoxPredictor_4/BoxEncodingPredictor/weights_quant/FakeQuantWithMinMaxVars", "shape": [1, 1, 256, 24], "dtype": "float32", "quantization": {"min": -0.07635421998360578, "scale": 0.0007069835183667202, "dtype": "uint8"}}, {"name": "FeatureExtractor/MobilenetV1/Conv2d_13_pointwise_2_Conv2d_2_3x3_s2_512/weights_quant/FakeQuantWithMinMaxVars", "shape": [3, 3, 256, 512], "dtype": "float32", "quantization": {"min": -0.07135260359329336, "scale": 0.0005801024682381574, "dtype": "uint8"}}, {"name": "FeatureExtractor/MobilenetV1/Conv2d_13_pointwise_2_Conv2d_2_3x3_s2_512/act_quant/min", "shape": [], "dtype": "float32", "quantization": {"min": -5.084256649017334, "scale": 1.0, "dtype": "uint8"}}, {"name": "BoxPredictor_4/BoxEncodingPredictor/act_quant/min", "shape": [], "dtype": "float32", "quantization": {"min": -2.6447269916534424, "scale": 1.0, "dtype": "uint8"}}, {"name": "FeatureExtractor/MobilenetV1/Conv2d_13_pointwise_2_Conv2d_2_3x3_s2_512/act_quant/max", "shape": [], "dtype": "float32", "quantization": {"min": 5.036728382110596, "scale": 1.0, "dtype": "uint8"}}, {"name": "BoxPredictor_4/BoxEncodingPredictor/act_quant/max", "shape": [], "dtype": "float32", "quantization": {"min": 2.425053834915161, "scale": 1.0, "dtype": "uint8"}}, {"name": "FeatureExtractor/MobilenetV1/Conv2d_13_pointwise_1_Conv2d_3_1x1_128/weights_quant/FakeQuantWithMinMaxVars", "shape": [1, 1, 512, 128], "dtype": "float32", "quantization": {"min": -0.17018704174780377, "scale": 0.0014798873195461199, "dtype": "uint8"}}, {"name": "FeatureExtractor/MobilenetV1/Conv2d_13_pointwise_1_Conv2d_3_1x1_128/act_quant/min", "shape": [], "dtype": "float32", "quantization": {"min": -4.716298580169678, "scale": 1.0, "dtype": "uint8"}}, {"name": "FeatureExtractor/MobilenetV1/Conv2d_13_pointwise_1_Conv2d_3_1x1_128/act_quant/max", "shape": [], "dtype": "float32", "quantization": {"min": 5.141589641571045, "scale": 1.0, "dtype": "uint8"}}, {"name": "FeatureExtractor/MobilenetV1/Conv2d_13_pointwise_2_Conv2d_3_3x3_s2_256/weights_quant/FakeQuantWithMinMaxVars", "shape": [3, 3, 128, 256], "dtype": "float32", "quantization": {"min": -0.12366914936140472, "scale": 0.0009661652293859744, "dtype": "uint8"}}, {"name": "FeatureExtractor/MobilenetV1/Conv2d_13_pointwise_2_Conv2d_3_3x3_s2_256/act_quant/min", "shape": [], "dtype": "float32", "quantization": {"min": -4.689512252807617, "scale": 1.0, "dtype": "uint8"}}, {"name": "FeatureExtractor/MobilenetV1/Conv2d_13_pointwise_2_Conv2d_3_3x3_s2_256/act_quant/max", "shape": [], "dtype": "float32", "quantization": {"min": 4.47413969039917, "scale": 1.0, "dtype": "uint8"}}, {"name": "FeatureExtractor/MobilenetV1/Conv2d_13_pointwise_1_Conv2d_4_1x1_128/weights_quant/FakeQuantWithMinMaxVars", "shape": [1, 1, 256, 128], "dtype": "float32", "quantization": {"min": -0.23037249603692223, "scale": 0.002038694655194002, "dtype": "uint8"}}, {"name": "FeatureExtractor/MobilenetV1/Conv2d_13_pointwise_1_Conv2d_4_1x1_128/act_quant/min", "shape": [], "dtype": "float32", "quantization": {"min": -4.2129693031311035, "scale": 1.0, "dtype": "uint8"}}, {"name": "FeatureExtractor/MobilenetV1/Conv2d_13_pointwise_1_Conv2d_4_1x1_128/act_quant/max", "shape": [], "dtype": "float32", "quantization": {"min": 5.1533355712890625, "scale": 1.0, "dtype": "uint8"}}, {"name": "FeatureExtractor/MobilenetV1/Conv2d_13_pointwise_2_Conv2d_4_3x3_s2_256/weights_quant/FakeQuantWithMinMaxVars", "shape": [3, 3, 128, 256], "dtype": "float32", "quantization": {"min": -0.10498714645703634, "scale": 0.0008822449282103894, "dtype": "uint8"}}, {"name": "FeatureExtractor/MobilenetV1/Conv2d_13_pointwise_2_Conv2d_4_3x3_s2_256/act_quant/min", "shape": [], "dtype": "float32", "quantization": {"min": -3.818441390991211, "scale": 1.0, "dtype": "uint8"}}, {"name": "FeatureExtractor/MobilenetV1/Conv2d_13_pointwise_2_Conv2d_4_3x3_s2_256/act_quant/max", "shape": [], "dtype": "float32", "quantization": {"min": 4.724006652832031, "scale": 1.0, "dtype": "uint8"}}, {"name": "FeatureExtractor/MobilenetV1/Conv2d_13_pointwise_1_Conv2d_5_1x1_64/weights_quant/FakeQuantWithMinMaxVars", "shape": [1, 1, 256, 64], "dtype": "float32", "quantization": {"min": -0.13941066598190982, "scale": 0.0012337227078045116, "dtype": "uint8"}}, {"name": "FeatureExtractor/MobilenetV1/Conv2d_13_pointwise_1_Conv2d_5_1x1_64/act_quant/min", "shape": [], "dtype": "float32", "quantization": {"min": -3.8110392093658447, "scale": 1.0, "dtype": "uint8"}}, {"name": "BoxPredictor_0/BoxEncodingPredictor/biases", "shape": [12], "dtype": "float32", "quantization": {"min": -0.007305578157013538, "scale": 5.707482935166826e-05, "dtype": "uint8"}}, {"name": "FeatureExtractor/MobilenetV1/Conv2d_13_pointwise_1_Conv2d_5_1x1_64/act_quant/max", "shape": [], "dtype": "float32", "quantization": {"min": 4.344287395477295, "scale": 1.0, "dtype": "uint8"}}, {"name": "BoxPredictor_0/Reshape/shape/1", "shape": [], "dtype": "int32"}, {"name": "BoxPredictor_0/Reshape/shape/3", "shape": [], "dtype": "int32"}, {"name": "BoxPredictor_0/ClassPredictor/biases", "shape": [12], "dtype": "float32", "quantization": {"min": -4.609341621398926, "scale": 2.625409294577206e-05, "dtype": "uint8"}}, {"name": "BoxPredictor_1/BoxEncodingPredictor/biases", "shape": [24], "dtype": "float32", "quantization": {"min": -0.00605182711984597, "scale": 0.0004322733657032836, "dtype": "uint8"}}, {"name": "BoxPredictor_1/ClassPredictor/biases", "shape": [24], "dtype": "float32", "quantization": {"min": -4.604280948638916, "scale": 0.0004935993867761949, "dtype": "uint8"}}, {"name": "FeatureExtractor/MobilenetV1/Conv2d_13_pointwise_2_Conv2d_5_3x3_s2_128/weights_quant/FakeQuantWithMinMaxVars", "shape": [3, 3, 64, 128], "dtype": "float32", "quantization": {"min": -0.15174618801649878, "scale": 0.0011240458371592503, "dtype": "uint8"}}, {"name": "BoxPredictor_2/BoxEncodingPredictor/biases", "shape": [24], "dtype": "float32", "quantization": {"min": -0.016495219793389825, "scale": 0.0005688006825306836, "dtype": "uint8"}}, {"name": "BoxPredictor_2/ClassPredictor/biases", "shape": [24], "dtype": "float32", "quantization": {"min": -4.601568222045898, "scale": 0.0009339444777544806, "dtype": "uint8"}}, {"name": "FeatureExtractor/MobilenetV1/Conv2d_13_pointwise_2_Conv2d_5_3x3_s2_128/act_quant/min", "shape": [], "dtype": "float32", "quantization": {"min": -3.004164695739746, "scale": 1.0, "dtype": "uint8"}}, {"name": "BoxPredictor_3/BoxEncodingPredictor/biases", "shape": [24], "dtype": "float32", "quantization": {"min": -0.044216983677709806, "scale": 0.0004654419334495769, "dtype": "uint8"}}, {"name": "FeatureExtractor/MobilenetV1/Conv2d_13_pointwise_2_Conv2d_5_3x3_s2_128/act_quant/max", "shape": [], "dtype": "float32", "quantization": {"min": 2.840810537338257, "scale": 1.0, "dtype": "uint8"}}, {"name": "BoxPredictor_3/ClassPredictor/biases", "shape": [24], "dtype": "float32", "quantization": {"min": -4.600672721862793, "scale": 0.000485083636115579, "dtype": "uint8"}}, {"name": "BoxPredictor_4/BoxEncodingPredictor/biases", "shape": [24], "dtype": "float32", "quantization": {"min": -0.05492239983058443, "scale": 0.0003085528080369912, "dtype": "uint8"}}, {"name": "BoxPredictor_4/ClassPredictor/biases", "shape": [24], "dtype": "float32", "quantization": {"min": -4.6003737449646, "scale": 0.00022569544175091912, "dtype": "uint8"}}, {"name": "BoxPredictor_5/BoxEncodingPredictor/weights_quant/FakeQuantWithMinMaxVars", "shape": [1, 1, 128, 24], "dtype": "float32", "quantization": {"min": -0.15008067944470574, "scale": 0.0010644019818773457, "dtype": "uint8"}}, {"name": "BoxPredictor_5/BoxEncodingPredictor/biases", "shape": [24], "dtype": "float32", "quantization": {"min": -0.19403323373373818, "scale": 0.0009066973538959728, "dtype": "uint8"}}, {"name": "BoxPredictor_5/ClassPredictor/biases", "shape": [24], "dtype": "float32", "quantization": {"min": -4.599999904632568, "scale": 0.0016195297241210938, "dtype": "uint8"}}, {"name": "Postprocessor/strided_slice_1/stack_1", "shape": [1], "dtype": "int32"}, {"name": "Postprocessor/Reshape/shape", "shape": [2], "dtype": "int32"}, {"name": "Postprocessor/Decode/get_center_coordinates_and_sizes/transpose/perm", "shape": [2], "dtype": "int32"}, {"name": "Postprocessor/ExpandDims_1/dim", "shape": [], "dtype": "int32"}, {"name": "Postprocessor/Slice/begin", "shape": [3], "dtype": "int32"}, {"name": "Postprocessor/Slice/size", "shape": [3], "dtype": "int32"}, {"name": "BoxPredictor_5/ClassPredictor/act_quant/min", "shape": [], "dtype": "float32", "quantization": {"min": -4.794955730438232, "scale": 1.0, "dtype": "uint8"}}, {"name": "BoxPredictor_5/ClassPredictor/act_quant/max", "shape": [], "dtype": "float32", "quantization": {"min": 1.7264372110366821, "scale": 1.0, "dtype": "uint8"}}, {"name": "BoxPredictor_5/ClassPredictor/weights_quant/FakeQuantWithMinMaxVars", "shape": [1, 1, 128, 24], "dtype": "float32", "quantization": {"min": -0.06551676731483609, "scale": 0.001023699489294314, "dtype": "uint8"}}, {"name": "FeatureExtractor/MobilenetV1/MobilenetV1/Conv2d_0/BatchNorm_Fold/bias", "shape": [32], "dtype": "float32", "quantization": {"min": -0.7719690834774691, "scale": 0.00511237803627463, "dtype": "uint8"}}, {"name": "FeatureExtractor/MobilenetV1/MobilenetV1/Conv2d_1_depthwise/BatchNorm_Fold/bias", "shape": [32], "dtype": "float32", "quantization": {"min": -1.4792766178355496, "scale": 0.01297611068276798, "dtype": "uint8"}}, {"name": "FeatureExtractor/MobilenetV1/MobilenetV1/Conv2d_1_pointwise/BatchNorm_Fold/bias", "shape": [64], "dtype": "float32", "quantization": {"min": -1.5596102041356703, "scale": 0.01444083522347843, "dtype": "uint8"}}, {"name": "FeatureExtractor/MobilenetV1/MobilenetV1/Conv2d_2_depthwise/BatchNorm_Fold/bias", "shape": [64], "dtype": "float32", "quantization": {"min": -1.493887207554836, "scale": 0.016785249523088044, "dtype": "uint8"}}, {"name": "FeatureExtractor/MobilenetV1/MobilenetV1/Conv2d_2_pointwise/BatchNorm_Fold/bias", "shape": [128], "dtype": "float32", "quantization": {"min": -1.9253127518822166, "scale": 0.015652949202294444, "dtype": "uint8"}}, {"name": "FeatureExtractor/MobilenetV1/MobilenetV1/Conv2d_3_depthwise/BatchNorm_Fold/bias", "shape": [128], "dtype": "float32", "quantization": {"min": -1.345764142859216, "scale": 0.013873857142878514, "dtype": "uint8"}}, {"name": "FeatureExtractor/MobilenetV1/MobilenetV1/Conv2d_3_pointwise/BatchNorm_Fold/bias", "shape": [128], "dtype": "float32", "quantization": {"min": -1.2803741973989151, "scale": 0.013767464488160377, "dtype": "uint8"}}, {"name": "FeatureExtractor/MobilenetV1/MobilenetV1/Conv2d_4_depthwise/BatchNorm_Fold/bias", "shape": [128], "dtype": "float32", "quantization": {"min": -1.2987014041227454, "scale": 0.01030715400097417, "dtype": "uint8"}}, {"name": "FeatureExtractor/MobilenetV1/MobilenetV1/Conv2d_4_pointwise/BatchNorm_Fold/bias", "shape": [256], "dtype": "float32", "quantization": {"min": -1.72945643640032, "scale": 0.015038751620872348, "dtype": "uint8"}}, {"name": "FeatureExtractor/MobilenetV1/MobilenetV1/Conv2d_5_depthwise/BatchNorm_Fold/bias", "shape": [256], "dtype": "float32", "quantization": {"min": -1.324593758583069, "scale": 0.011321314175923665, "dtype": "uint8"}}, {"name": "FeatureExtractor/MobilenetV1/MobilenetV1/Conv2d_5_pointwise/BatchNorm_Fold/bias", "shape": [256], "dtype": "float32", "quantization": {"min": -1.733151445201799, "scale": 0.014940960734498267, "dtype": "uint8"}}, {"name": "FeatureExtractor/MobilenetV1/MobilenetV1/Conv2d_6_depthwise/BatchNorm_Fold/bias", "shape": [256], "dtype": "float32", "quantization": {"min": -1.2329080665812773, "scale": 0.010189322864308077, "dtype": "uint8"}}, {"name": "FeatureExtractor/MobilenetV1/MobilenetV1/Conv2d_6_pointwise/BatchNorm_Fold/bias", "shape": [512], "dtype": "float32", "quantization": {"min": -2.663025295968149, "scale": 0.018622554517259783, "dtype": "uint8"}}, {"name": "FeatureExtractor/MobilenetV1/MobilenetV1/Conv2d_7_depthwise/BatchNorm_Fold/bias", "shape": [512], "dtype": "float32", "quantization": {"min": -1.4324937343597413, "scale": 0.011368997891743978, "dtype": "uint8"}}, {"name": "FeatureExtractor/MobilenetV1/MobilenetV1/Conv2d_7_pointwise/BatchNorm_Fold/bias", "shape": [512], "dtype": "float32", "quantization": {"min": -2.5793130313648898, "scale": 0.0201508830575382, "dtype": "uint8"}}, {"name": "FeatureExtractor/MobilenetV1/MobilenetV1/Conv2d_8_depthwise/BatchNorm_Fold/bias", "shape": [512], "dtype": "float32", "quantization": {"min": -1.296576039463866, "scale": 0.010372608315710928, "dtype": "uint8"}}, {"name": "FeatureExtractor/MobilenetV1/MobilenetV1/Conv2d_8_pointwise/BatchNorm_Fold/bias", "shape": [512], "dtype": "float32", "quantization": {"min": -1.7849229700425093, "scale": 0.014054511575137868, "dtype": "uint8"}}, {"name": "FeatureExtractor/MobilenetV1/MobilenetV1/Conv2d_9_depthwise/BatchNorm_Fold/bias", "shape": [512], "dtype": "float32", "quantization": {"min": -1.3250968517041672, "scale": 0.009963134223339604, "dtype": "uint8"}}, {"name": "FeatureExtractor/MobilenetV1/MobilenetV1/Conv2d_9_pointwise/BatchNorm_Fold/bias", "shape": [512], "dtype": "float32", "quantization": {"min": -2.0233647066004137, "scale": 0.016317457311293658, "dtype": "uint8"}}, {"name": "FeatureExtractor/MobilenetV1/MobilenetV1/Conv2d_10_depthwise/BatchNorm_Fold/bias", "shape": [512], "dtype": "float32", "quantization": {"min": -1.2764718121173335, "scale": 0.009597532421934838, "dtype": "uint8"}}, {"name": "FeatureExtractor/MobilenetV1/MobilenetV1/Conv2d_10_pointwise/BatchNorm_Fold/bias", "shape": [512], "dtype": "float32", "quantization": {"min": -1.4451104893403894, "scale": 0.012042587411169913, "dtype": "uint8"}}, {"name": "FeatureExtractor/MobilenetV1/MobilenetV1/Conv2d_11_depthwise/BatchNorm_Fold/bias", "shape": [512], "dtype": "float32", "quantization": {"min": -1.3115080141553692, "scale": 0.009860962512446385, "dtype": "uint8"}}, {"name": "FeatureExtractor/MobilenetV1/MobilenetV1/Conv2d_11_pointwise/BatchNorm_Fold/bias", "shape": [512], "dtype": "float32", "quantization": {"min": -1.688349357773276, "scale": 0.01443033639122458, "dtype": "uint8"}}, {"name": "FeatureExtractor/MobilenetV1/MobilenetV1/Conv2d_12_depthwise/BatchNorm_Fold/bias", "shape": [512], "dtype": "float32", "quantization": {"min": -1.0243590037027994, "scale": 0.00914606253306071, "dtype": "uint8"}}, {"name": "FeatureExtractor/MobilenetV1/MobilenetV1/Conv2d_12_pointwise/BatchNorm_Fold/bias", "shape": [1024], "dtype": "float32", "quantization": {"min": -1.3451129464542164, "scale": 0.011799236372405408, "dtype": "uint8"}}, {"name": "FeatureExtractor/MobilenetV1/MobilenetV1/Conv2d_13_depthwise/BatchNorm_Fold/bias", "shape": [1024], "dtype": "float32", "quantization": {"min": -1.2257201148014443, "scale": 0.010129918304144168, "dtype": "uint8"}}, {"name": "FeatureExtractor/MobilenetV1/MobilenetV1/Conv2d_13_pointwise/BatchNorm_Fold/bias", "shape": [1024], "dtype": "float32", "quantization": {"min": -1.3790844202041628, "scale": 0.014828864733378093, "dtype": "uint8"}}, {"name": "FeatureExtractor/MobilenetV1/Conv2d_13_pointwise_1_Conv2d_2_1x1_256/BatchNorm_Fold/bias", "shape": [256], "dtype": "float32", "quantization": {"min": -1.0339037502513213, "scale": 0.009573182872697419, "dtype": "uint8"}}, {"name": "FeatureExtractor/MobilenetV1/Conv2d_13_pointwise_2_Conv2d_2_3x3_s2_512/BatchNorm_Fold/bias", "shape": [512], "dtype": "float32", "quantization": {"min": -1.0352045003105612, "scale": 0.013271852568084119, "dtype": "uint8"}}, {"name": "FeatureExtractor/MobilenetV1/Conv2d_13_pointwise_1_Conv2d_3_1x1_128/BatchNorm_Fold/bias", "shape": [128], "dtype": "float32", "quantization": {"min": -0.9312320982708651, "scale": 0.016337405232822195, "dtype": "uint8"}}, {"name": "FeatureExtractor/MobilenetV1/Conv2d_13_pointwise_2_Conv2d_3_3x3_s2_256/BatchNorm_Fold/bias", "shape": [256], "dtype": "float32", "quantization": {"min": -0.5271845967161889, "scale": 0.01075886932073855, "dtype": "uint8"}}, {"name": "FeatureExtractor/MobilenetV1/Conv2d_13_pointwise_1_Conv2d_4_1x1_128/BatchNorm_Fold/bias", "shape": [128], "dtype": "float32", "quantization": {"min": -1.1088387475294226, "scale": 0.014400503214667825, "dtype": "uint8"}}, {"name": "FeatureExtractor/MobilenetV1/Conv2d_13_pointwise_2_Conv2d_4_3x3_s2_256/BatchNorm_Fold/bias", "shape": [256], "dtype": "float32", "quantization": {"min": -0.47064532602534576, "scale": 0.008114574586643893, "dtype": "uint8"}}, {"name": "FeatureExtractor/MobilenetV1/Conv2d_13_pointwise_1_Conv2d_5_1x1_64/BatchNorm_Fold/bias", "shape": [64], "dtype": "float32", "quantization": {"min": -1.7752952814102174, "scale": 0.012958359718322755, "dtype": "uint8"}}, {"name": "FeatureExtractor/MobilenetV1/Conv2d_13_pointwise_2_Conv2d_5_3x3_s2_128/BatchNorm_Fold/bias", "shape": [128], "dtype": "float32", "quantization": {"min": -0.3265693593258951, "scale": 0.011261012390548107, "dtype": "uint8"}}, {"name": "FeatureExtractor/MobilenetV1/MobilenetV1/Conv2d_0/weights_quant/FakeQuantWithMinMaxVars", "shape": [3, 3, 3, 32], "dtype": "float32", "quantization": {"min": -1.4473167868221506, "scale": 0.012060973223517922, "dtype": "uint8"}}, {"name": "FeatureExtractor/MobilenetV1/MobilenetV1/Conv2d_0/act_quant/max", "shape": [], "dtype": "float32", "quantization": {"min": 5.997366905212402, "scale": 1.0, "dtype": "uint8"}}, {"name": "FeatureExtractor/MobilenetV1/MobilenetV1/Conv2d_1_depthwise/weights_quant/FakeQuantWithMinMaxVars", "shape": [3, 3, 32, 1], "dtype": "float32", "quantization": {"min": -3.6553459653667377, "scale": 0.031511603149713255, "dtype": "uint8"}}, {"name": "FeatureExtractor/MobilenetV1/MobilenetV1/Conv2d_1_depthwise/act_quant/max", "shape": [], "dtype": "float32", "quantization": {"min": 5.996766567230225, "scale": 1.0, "dtype": "uint8"}}, {"name": "BoxPredictor_0/BoxEncodingPredictor/weights_quant/FakeQuantWithMinMaxVars", "shape": [1, 1, 512, 12], "dtype": "float32", "quantization": {"min": -0.0370005201475293, "scale": 0.00028244671868342977, "dtype": "uint8"}}, {"name": "FeatureExtractor/MobilenetV1/MobilenetV1/Conv2d_1_pointwise/weights_quant/FakeQuantWithMinMaxVars", "shape": [1, 1, 32, 64], "dtype": "float32", "quantization": {"min": -1.2005267760332894, "scale": 0.011014007119571461, "dtype": "uint8"}}, {"name": "BoxPredictor_0/BoxEncodingPredictor/act_quant/min", "shape": [], "dtype": "float32", "quantization": {"min": -1.3069000244140625, "scale": 1.0, "dtype": "uint8"}}, {"name": "FeatureExtractor/MobilenetV1/MobilenetV1/Conv2d_1_pointwise/act_quant/max", "shape": [], "dtype": "float32", "quantization": {"min": 5.928086280822754, "scale": 1.0, "dtype": "uint8"}}, {"name": "BoxPredictor_0/BoxEncodingPredictor/act_quant/max", "shape": [], "dtype": "float32", "quantization": {"min": 1.1623207330703735, "scale": 1.0, "dtype": "uint8"}}, {"name": "FeatureExtractor/MobilenetV1/MobilenetV1/Conv2d_2_depthwise/weights_quant/FakeQuantWithMinMaxVars", "shape": [3, 3, 64, 1], "dtype": "float32", "quantization": {"min": -4.7707145541322, "scale": 0.03290147968367034, "dtype": "uint8"}}, {"name": "FeatureExtractor/MobilenetV1/MobilenetV1/Conv2d_2_depthwise/act_quant/max", "shape": [], "dtype": "float32", "quantization": {"min": 5.99672269821167, "scale": 1.0, "dtype": "uint8"}}, {"name": "FeatureExtractor/MobilenetV1/MobilenetV1/Conv2d_2_pointwise/weights_quant/FakeQuantWithMinMaxVars", "shape": [1, 1, 64, 128], "dtype": "float32", "quantization": {"min": -1.1351973987093158, "scale": 0.009081579189674527, "dtype": "uint8"}}, {"name": "FeatureExtractor/MobilenetV1/MobilenetV1/Conv2d_2_pointwise/act_quant/max", "shape": [], "dtype": "float32", "quantization": {"min": 5.996856689453125, "scale": 1.0, "dtype": "uint8"}}, {"name": "BoxPredictor_0/ClassPredictor/weights_quant/FakeQuantWithMinMaxVars", "shape": [1, 1, 512, 12], "dtype": "float32", "quantization": {"min": -0.04484465186502419, "scale": 0.0003030044044934067, "dtype": "uint8"}}, {"name": "FeatureExtractor/MobilenetV1/MobilenetV1/Conv2d_3_depthwise/weights_quant/FakeQuantWithMinMaxVars", "shape": [3, 3, 128, 1], "dtype": "float32", "quantization": {"min": -3.9991708549798703, "scale": 0.03052802179373947, "dtype": "uint8"}}, {"name": "FeatureExtractor/MobilenetV1/MobilenetV1/Conv2d_3_depthwise/act_quant/max", "shape": [], "dtype": "float32", "quantization": {"min": 5.996551990509033, "scale": 1.0, "dtype": "uint8"}}, {"name": "BoxPredictor_0/ClassPredictor/act_quant/min", "shape": [], "dtype": "float32", "quantization": {"min": -6.2973809242248535, "scale": 1.0, "dtype": "uint8"}}, {"name": "FeatureExtractor/MobilenetV1/MobilenetV1/Conv2d_3_pointwise/weights_quant/FakeQuantWithMinMaxVars", "shape": [1, 1, 128, 128], "dtype": "float32", "quantization": {"min": -0.9652838982787787, "scale": 0.006797773931540695, "dtype": "uint8"}}, {"name": "FeatureExtractor/MobilenetV1/MobilenetV1/Conv2d_3_pointwise/act_quant/max", "shape": [], "dtype": "float32", "quantization": {"min": 5.997068881988525, "scale": 1.0, "dtype": "uint8"}}, {"name": "FeatureExtractor/MobilenetV1/MobilenetV1/Conv2d_4_depthwise/weights_quant/FakeQuantWithMinMaxVars", "shape": [3, 3, 128, 1], "dtype": "float32", "quantization": {"min": -2.692596909579109, "scale": 0.023013648799821443, "dtype": "uint8"}}, {"name": "FeatureExtractor/MobilenetV1/MobilenetV1/Conv2d_4_depthwise/act_quant/max", "shape": [], "dtype": "float32", "quantization": {"min": 5.996250629425049, "scale": 1.0, "dtype": "uint8"}}, {"name": "BoxPredictor_1/BoxEncodingPredictor/weights_quant/FakeQuantWithMinMaxVars", "shape": [1, 1, 1024, 24], "dtype": "float32", "quantization": {"min": -0.12038270384073257, "scale": 0.0009948983788490295, "dtype": "uint8"}}, {"name": "FeatureExtractor/MobilenetV1/MobilenetV1/Conv2d_4_pointwise/weights_quant/FakeQuantWithMinMaxVars", "shape": [1, 1, 128, 256], "dtype": "float32", "quantization": {"min": -0.8492152772697747, "scale": 0.006793722218158198, "dtype": "uint8"}}, {"name": "FeatureExtractor/MobilenetV1/MobilenetV1/Conv2d_4_pointwise/act_quant/max", "shape": [], "dtype": "float32", "quantization": {"min": 5.99682092666626, "scale": 1.0, "dtype": "uint8"}}, {"name": "BoxPredictor_1/BoxEncodingPredictor/act_quant/min", "shape": [], "dtype": "float32", "quantization": {"min": -6.181768417358398, "scale": 1.0, "dtype": "uint8"}}, {"name": "FeatureExtractor/MobilenetV1/MobilenetV1/Conv2d_5_depthwise/weights_quant/FakeQuantWithMinMaxVars", "shape": [3, 3, 256, 1], "dtype": "float32", "quantization": {"min": -2.5391352933995863, "scale": 0.020812584372127758, "dtype": "uint8"}}, {"name": "BoxPredictor_1/BoxEncodingPredictor/act_quant/max", "shape": [], "dtype": "float32", "quantization": {"min": 5.815329551696777, "scale": 1.0, "dtype": "uint8"}}, {"name": "FeatureExtractor/MobilenetV1/MobilenetV1/Conv2d_5_depthwise/act_quant/max", "shape": [], "dtype": "float32", "quantization": {"min": 5.996563911437988, "scale": 1.0, "dtype": "uint8"}}, {"name": "FeatureExtractor/MobilenetV1/MobilenetV1/Conv2d_5_pointwise/weights_quant/FakeQuantWithMinMaxVars", "shape": [1, 1, 256, 256], "dtype": "float32", "quantization": {"min": -0.43676427649516686, "scale": 0.0037979502303927552, "dtype": "uint8"}}, {"name": "FeatureExtractor/MobilenetV1/MobilenetV1/Conv2d_5_pointwise/act_quant/max", "shape": [], "dtype": "float32", "quantization": {"min": 5.99776554107666, "scale": 1.0, "dtype": "uint8"}}, {"name": "FeatureExtractor/MobilenetV1/MobilenetV1/Conv2d_6_depthwise/weights_quant/FakeQuantWithMinMaxVars", "shape": [3, 3, 256, 1], "dtype": "float32", "quantization": {"min": -3.4030312678393195, "scale": 0.026380087347591626, "dtype": "uint8"}}, {"name": "BoxPredictor_1/ClassPredictor/weights_quant/FakeQuantWithMinMaxVars", "shape": [1, 1, 1024, 24], "dtype": "float32", "quantization": {"min": -0.3724136657574597, "scale": 0.002604291368933285, "dtype": "uint8"}}, {"name": "FeatureExtractor/MobilenetV1/MobilenetV1/Conv2d_6_depthwise/act_quant/max", "shape": [], "dtype": "float32", "quantization": {"min": 5.996707439422607, "scale": 1.0, "dtype": "uint8"}}, {"name": "BoxPredictor_1/ClassPredictor/act_quant/min", "shape": [], "dtype": "float32", "quantization": {"min": -219.0401153564453, "scale": 1.0, "dtype": "uint8"}}, {"name": "FeatureExtractor/MobilenetV1/MobilenetV1/Conv2d_6_pointwise/weights_quant/FakeQuantWithMinMaxVars", "shape": [1, 1, 256, 512], "dtype": "float32", "quantization": {"min": -0.49072197769202436, "scale": 0.004158660827898512, "dtype": "uint8"}}, {"name": "FeatureExtractor/MobilenetV1/MobilenetV1/Conv2d_6_pointwise/act_quant/max", "shape": [], "dtype": "float32", "quantization": {"min": 5.9986162185668945, "scale": 1.0, "dtype": "uint8"}}, {"name": "BoxPredictor_1/ClassPredictor/act_quant/max", "shape": [], "dtype": "float32", "quantization": {"min": 1.4352856874465942, "scale": 1.0, "dtype": "uint8"}}, {"name": "FeatureExtractor/MobilenetV1/MobilenetV1/Conv2d_7_depthwise/weights_quant/FakeQuantWithMinMaxVars", "shape": [3, 3, 512, 1], "dtype": "float32", "quantization": {"min": -2.9611459928400374, "scale": 0.022954620099535174, "dtype": "uint8"}}, {"name": "FeatureExtractor/MobilenetV1/MobilenetV1/Conv2d_7_depthwise/act_quant/max", "shape": [], "dtype": "float32", "quantization": {"min": 5.999020099639893, "scale": 1.0, "dtype": "uint8"}}, {"name": "FeatureExtractor/MobilenetV1/MobilenetV1/Conv2d_7_pointwise/weights_quant/FakeQuantWithMinMaxVars", "shape": [1, 1, 512, 512], "dtype": "float32", "quantization": {"min": -0.3689816488939173, "scale": 0.002733197399214202, "dtype": "uint8"}}, {"name": "BoxPredictor_2/BoxEncodingPredictor/weights_quant/FakeQuantWithMinMaxVars", "shape": [1, 1, 512, 24], "dtype": "float32", "quantization": {"min": -0.15560467032825245, "scale": 0.001440783984520856, "dtype": "uint8"}}, {"name": "FeatureExtractor/MobilenetV1/MobilenetV1/Conv2d_8_depthwise/weights_quant/FakeQuantWithMinMaxVars", "shape": [3, 3, 512, 1], "dtype": "float32", "quantization": {"min": -2.370600331063364, "scale": 0.020978763991711186, "dtype": "uint8"}}, {"name": "BoxPredictor_2/BoxEncodingPredictor/act_quant/min", "shape": [], "dtype": "float32", "quantization": {"min": -6.4219183921813965, "scale": 1.0, "dtype": "uint8"}}, {"name": "FeatureExtractor/MobilenetV1/MobilenetV1/Conv2d_8_depthwise/act_quant/max", "shape": [], "dtype": "float32", "quantization": {"min": 5.999847888946533, "scale": 1.0, "dtype": "uint8"}}, {"name": "BoxPredictor_2/BoxEncodingPredictor/act_quant/max", "shape": [], "dtype": "float32", "quantization": {"min": 5.104263782501221, "scale": 1.0, "dtype": "uint8"}}, {"name": "FeatureExtractor/MobilenetV1/MobilenetV1/Conv2d_8_pointwise/weights_quant/FakeQuantWithMinMaxVars", "shape": [1, 1, 512, 512], "dtype": "float32", "quantization": {"min": -0.23017480011079827, "scale": 0.002171460378403757, "dtype": "uint8"}}, {"name": "FeatureExtractor/MobilenetV1/MobilenetV1/Conv2d_9_depthwise/weights_quant/FakeQuantWithMinMaxVars", "shape": [3, 3, 512, 1], "dtype": "float32", "quantization": {"min": -2.468538243162866, "scale": 0.023288096633611942, "dtype": "uint8"}}, {"name": "BoxPredictor_2/ClassPredictor/weights_quant/FakeQuantWithMinMaxVars", "shape": [1, 1, 512, 24], "dtype": "float32", "quantization": {"min": -0.18149455575382006, "scale": 0.0018905682891022925, "dtype": "uint8"}}, {"name": "FeatureExtractor/MobilenetV1/MobilenetV1/Conv2d_9_pointwise/weights_quant/FakeQuantWithMinMaxVars", "shape": [1, 1, 512, 512], "dtype": "float32", "quantization": {"min": -0.22925069080848318, "scale": 0.0018340055264678655, "dtype": "uint8"}}, {"name": "BoxPredictor_2/ClassPredictor/act_quant/min", "shape": [], "dtype": "float32", "quantization": {"min": -7.082657814025879, "scale": 1.0, "dtype": "uint8"}}, {"name": "BoxPredictor_2/ClassPredictor/act_quant/max", "shape": [], "dtype": "float32", "quantization": {"min": 2.09907865524292, "scale": 1.0, "dtype": "uint8"}}, {"name": "FeatureExtractor/MobilenetV1/MobilenetV1/Conv2d_10_depthwise/weights_quant/FakeQuantWithMinMaxVars", "shape": [3, 3, 512, 1], "dtype": "float32", "quantization": {"min": -2.666923967997233, "scale": 0.022411125781489353, "dtype": "uint8"}}, {"name": "FeatureExtractor/MobilenetV1/MobilenetV1/Conv2d_10_pointwise/weights_quant/FakeQuantWithMinMaxVars", "shape": [1, 1, 512, 512], "dtype": "float32", "quantization": {"min": -0.24158122428492002, "scale": 0.002216341507201101, "dtype": "uint8"}}, {"name": "BoxPredictor_3/BoxEncodingPredictor/weights_quant/FakeQuantWithMinMaxVars", "shape": [1, 1, 256, 24], "dtype": "float32", "quantization": {"min": -0.1637098835963829, "scale": 0.001309679068771063, "dtype": "uint8"}}, {"name": "FeatureExtractor/MobilenetV1/MobilenetV1/Conv2d_11_depthwise/weights_quant/FakeQuantWithMinMaxVars", "shape": [3, 3, 512, 1], "dtype": "float32", "quantization": {"min": -2.1832179415459723, "scale": 0.018984503839530195, "dtype": "uint8"}}, {"name": "ConstantFolding/Postprocessor/Decode/get_center_coordinates_and_sizes/truediv_recip", "shape": [], "dtype": "float32", "quantization": {"min": 0.5, "scale": 1.0, "dtype": "uint8"}}, {"name": "ConstantFolding/Postprocessor/Decode/truediv_recip", "shape": [], "dtype": "float32", "quantization": {"min": 0.10000000149011612, "scale": 1.0, "dtype": "uint8"}}, {"name": "ConstantFolding/Postprocessor/Decode/truediv_2_recip", "shape": [], "dtype": "float32", "quantization": {"min": 0.20000000298023224, "scale": 1.0, "dtype": "uint8"}}, {"name": "Postprocessor/ExpandDims", "shape": [1, 1917, 4], "dtype": "float32", "quantization": {"min": -0.44369642874773807, "scale": 0.007394940479128968, "dtype": "uint8"}}, {"name": "Preprocessor/map/while/add/y", "shape": [], "dtype": "int32"}, {"name": "Preprocessor/map/while/ResizeImage/stack", "shape": [2], "dtype": "int32"}, {"name": "Preprocessor/map/while/ResizeImage/resize/ExpandDims/dim", "shape": [], "dtype": "int32"}]}]}